examples/mujoco_Go1/nn_params/Go1Footstand/hidden_1_kernel.npy (npy, 524416 bytes, 1 tensors)

array f4 [512, 256]
0	0xbdc2f659	-0.09519643
1	0xbe058e36	-0.1304253
2	0xbdc65693	-0.096844815
3	0x3d47aef1	0.04875082
4	0x397eaa7c	0.00024286838
5	0xbcf3d557	-0.029764814
6	0xbc57f76b	-0.013181548
7	0xbd6b4708	-0.057440788
8	0xbc0a5c23	-0.008444819
9	0x3d7ddfab	0.061980885
10	0xbdc4c474	-0.09607783
11	0xbb3eb5e0	-0.0029100105
12	0xbd0d0f1d	-0.03443824
13	0xbd0d3251	-0.034471814
14	0xbd86a08d	-0.065735914
15	0xbe2c18cf	-0.16806339
16	0xbd48f150	-0.04905826
17	0xbbc6ec2e	-0.0060706353
18	0x3daa2adb	0.08308955
19	0xbd83e9bd	-0.064410664
20	0xbd8ca952	-0.06868233
21	0x3d599b8e	0.053126864
22	0x3cc62e63	0.02419204
23	0x3e2e50fe	0.17023084
24	0xbd9d6998	-0.07686156
25	0x3d715311	0.05891711
26	0xbad56e5e	-0.0016283502
27	0x3e03a7ef	0.1285703
28	0xbdab96af	-0.0837835
29	0x3c493510	0.0122807175
30	0xbd3dbef5	-0.04632469
31	0x3b872392	0.0041241134
32	0xbc278a44	-0.010225836
33	0xbb883122	-0.0041562477
34	0xbd08e114	-0.033417776
35	0xbc2946e5	-0.010331844
36	0x3e05081a	0.12991372
37	0xbe04199c	-0.12900394
38	0xbd62ecb8	-0.055401534
39	0x3dd314fd	0.103067376
40	0xbe0124f6	-0.12611756
41	0xbe01eaeb	-0.1268727
42	0x3cc77d62	0.02435178
43	0x3dd2e386	0.10297303
44	0x3d28ed85	0.04124214
45	0x3cacccb6	0.021093708
46	0xbd83518e	-0.0641204
47	0xbd9f40f3	-0.0777606
48	0xbbb2eac3	-0.0054601147
49	0x3cb97b57	0.02264182
50	0xbc745297	-0.014912269
51	0x3d668ebe	0.056288473
52	0xbd820d31	-0.06350172
53	0x3d4fad16	0.050702177
54	0x3c65e35b	0.014031257
55	0xbd49a5f2	-0.049230523
56	0x3d919f26	0.07110433
57	0x3d0ac66f	0.033880647
58	0x3c34957f	0.011021971
59	0xbd3c90f1	-0.046036664
60	0xbe3bbc68	-0.1833359
61	0xbe1dddac	-0.15416592
62	0xbcc39eb1	-0.02387938
63	0xbd7cc527	-0.061711457
64	0xbc006620	-0.0078368485
65	0x3cfbcc56	0.030737083
66	0x3c38cdf1	0.011279569
67	0xbd68e8e0	-0.056862712
68	0xbd9a40de	-0.07531904
69	0xbe80bf78	-0.2514608
70	0xbe2d9082	-0.16949657
71	0x3d1b5b79	0.037929032
72	0xbc4f267c	-0.012643453
73	0x3e290d80	0.16509056
74	0xbc1de50b	-0.009637128
75	0x3d3e46bc	0.046454176
76	0x38ecfdc0	0.000113006216
77	0xbd0b2d3b	-0.033978682
78	0xbc75b275	-0.014996161
79	0xbd788e84	-0.06068279
80	0x3d4508ff	0.048104282
81	0xbd4c0279	-0.049807046
82	0xbd5ac486	-0.053410076
83	0x3d48868c	0.04895644
84	0xbda9c770	-0.08289993
85	0xbe1f8b77	-0.15580545
86	0xbdadf5f4	-0.084941775
87	0xbc4a8116	-0.012359878
88	0x3d8b6871	0.0680703
89	0xbd2cdc4e	-0.042202286
90	0x3e55d72e	0.20882866
91	0x3dafe997	0.085894756
92	0x3c576cc9	0.013148495
93	0x3c8e4629	0.01736744
94	0xbc87dd13	-0.016584909
95	0xbe182fda	-0.14862004
96	0x3e1200b6	0.14258084
97	0xbbc3c2c9	-0.005974148
98	0xbcc42cd4	-0.023947157
99	0xbc6757f9	-0.014120095
100	0x3d1f611b	0.038910966
101	0x3dcf6569	0.10126764
102	0x3d8513f1	0.06497944
103	0xbdd5af95	-0.1043388
104	0x3b96be94	0.0046003554
105	0x3d72c01d	0.059265245
106	0xbe32c002	-0.17456058
107	0xbd0da428	-0.03458038
108	0xbd8c0344	-0.0683656
109	0xbc0d8101	-0.008636714
110	0x3d804cbf	0.06264638
111	0xbd2046fc	-0.039130196
112	0x3e0728d1	0.13199164
113	0xbd05c38e	-0.0326572
114	0xbda20e35	-0.07912866
115	0xbe707b4f	-0.23484538
116	0x3b6dde59	0.003629586
117	0x3ccfbbde	0.025358137
118	0x3d8aa582	0.06769849
119	0xbe399e66	-0.1812683
120	0xbe03e9ae	-0.1288211
121	0xbe681f68	-0.2266823
122	0x3bc206b5	0.0059212097
123	0xbd5e518c	-0.054276988
124	0xbc63fdd9	-0.0139155025
125	0x3cd122c0	0.025529265
126	0x3db4a783	0.08821013
127	0xbdd72568	-0.105051816
128	0xbdd6b922	-0.1048453
129	0xbdbfbc4d	-0.093620874
130	0x3dd235e5	0.10264186
131	0x3d027686	0.031851314
132	0xbdcb79b6	-0.09935324
133	0xbd8d9d54	-0.069147736
134	0x3cc3c8e0	0.023899496
135	0xbd4ae3f7	-0.04953381
136	0x3d9af607	0.07566457
137	0xbd91c518	-0.07117671
138	0xbe526150	-0.20544934
139	0xbe027a76	-0.12742028
140	0xbd0f1686	-0.03493359
141	0x3a32bcc3	0.0006818289
142	0xbe00f417	-0.12593113
143	0xbe3901ba	-0.18067065
144	0x3d71e9cb	0.059060853
145	0xbd97ea58	-0.074177444
146	0xbc07436d	-0.008255822
147	0x3d98a671	0.07453621
148	0xbe24f555	-0.16109212
149	0xbd1cd014	-0.038284376
150	0xbc8bed51	-0.017080935
151	0xba818322	-0.0009881
152	0xbd4bca4a	-0.049753465
153	0xbd95fde6	-0.07323818
154	0xbda14c9b	-0.078759395
155	0x3cadd72c	0.021220766
156	0xbd02d471	-0.03194088
157	0xbd98f71b	-0.07469007
158	0xbdf2c6d5	-0.118543305
159	0xbc2be7bf	-0.010492264
160	0xbcc6f4ff	-0.024286745
161	0xbd767486	-0.06016972
162	0x3dc40452	0.095711365
163	0x3d483926	0.048882626
164	0x3c253bd2	0.010085063
165	0x3d14808f	0.036255416
166	0x3df8dbdb	0.12151309
167	0xbdd428aa	-0.103593186
168	0x3d94e296	0.0726978
169	0xbd011708	-0.031516105
170	0x3d102c22	0.03519834
171	0xbd3df665	-0.04637756
172	0x3dee10e2	0.11624314
173	0x3d467b5e	0.048457496
174	0xbd4165d2	-0.047216244
175	0xbd5e2c91	-0.05424172
176	0xbd9408b8	-0.072282255
177	0xbcb91109	-0.02259113
178	0xbe139686	-0.14412889
179	0x3dcdae37	0.100429945
180	0xbd3a93a3	-0.045550954
181	0xbcabd684	-0.020976312
182	0xbc05f417	-0.008175871
183	0x3dfb7b78	0.12279409
184	0xbd527d71	-0.05138916
185	0xbd83eb9d	-0.06441424
186	0xbdc74b30	-0.09731138
187	0x3c33f133	0.010982799
188	0xbda9e7a3	-0.08296134
189	0x3e142941	0.14468862
190	0x3d8f9c7f	0.07012271
191	0xbe2dd098	-0.16974103
192	0xbda130f5	-0.07870666
193	0x3d2fb5b4	0.042897895
194	0xbd552495	-0.05203684
195	0x3dbf2395	0.093329586
196	0x3c84b61d	0.01620012
197	0xbe03dde7	-0.12877618
198	0xbdd09ce7	-0.10186177
199	0xbce48a88	-0.027898088
200	0xbd94753c	-0.07248923
201	0x3d019893	0.031639647
202	0xbe116abc	-0.14200872
203	0xbd3f296f	-0.046670374
204	0xbd6818e3	-0.05666436
205	0x3d1e434c	0.038638398
206	0x3d080d37	0.033215728
207	0x3ca0be72	0.019622061
208	0x3d23cbb7	0.0399892
209	0xbdb17ad2	-0.08666004
210	0xbe35f374	-0.17768651
211	0x3ce67f2b	0.02813681
212	0xbe47daca	-0.19517055
213	0x3ddd0603	0.10792162
214	0xbd7c15a7	-0.061544087
215	0xbe87e612	-0.26542717
216	0x3d138483	0.036015045
217	0x3ddc2841	0.10749865
218	0x3d4345e9	0.047674093
219	0x3d9ff16b	0.07809719
220	0x3dab6d78	0.08370489
221	0x3cea3ec4	0.028594382
222	0x3db87ca5	0.09008149
223	0xbcb61b72	-0.022229884
224	0xbe0be1c7	-0.13660346
225	0xbc9805b8	-0.018557414
226	0xbdf1278f	-0.11775123
227	0xbd290e8d	-0.041273642
228	0xbda0967b	-0.07841202
229	0xbd9129b5	-0.07088033
230	0x3cf65622	0.030070368
231	0x3d98a118	0.07452601
232	0xbccf8669	-0.025332646
233	0xbe298e22	-0.16558126
234	0xbd8a56e3	-0.067548536
235	0x3d7030eb	0.0586404
236	0x3ccf0bd1	0.02527419
237	0x3dd05f96	0.101744816
238	0x3e2fbf29	0.17162766
239	0xbdb2d879	-0.08732695
240	0xbd82068d	-0.06348906
241	0x3c3749f7	0.011187068
242	0xbdc12d00	-0.09432411
243	0x3c6eec5d	0.014582721
244	0xbab8a3cb	-0.00140869
245	0x3cac1ddb	0.02101033
246	0x3cf6c429	0.030122833
247	0x3d17a00d	0.03701787
248	0xbd4525cc	-0.04813175
249	0xbdd82353	-0.105536126
250	0xbde5c8e5	-0.11219958
251	0xbdf4f3b1	-0.11960543
252	0xbc83d7ea	-0.016094167
253	0xbbef9425	-0.0073113614
254	0xbcd8c3a3	-0.026460474
255	0x3e0e8df1	0.13921334
