examples/mujoco_Go1/nn_params/Go1Footstand/hidden_0_kernel.npy (npy, 92288 bytes, 1 tensors)

array f4 [45, 512]
0.15064853 0.016634446 0.014254464 0.05735779 -0.2639835 0.032806598 -0.3082817 0.10053154
0.2408066 0.30899644 -0.050417956 0.076802336 0.043292817 -0.358763 -0.18088895 -0.051115636
-0.20996675 -0.28084964 0.17955267 -0.3014202 0.051916365 -0.14823982 -0.12207154 -0.024875019
-0.22704875 -0.041207265 -0.097818755 -0.49092707 0.040541317 0.3150624 -0.26257613 -0.098924436
0.24987549 -0.050696783 -0.20380095 0.017372955 -0.34643468 -0.4032156 -0.027445275 -0.02423912
-0.34399 0.020067902 0.16531882 0.07780453 0.29364386 -0.12333675 0.29074493 0.030502034
-0.4297923 0.233453 0.3891047 0.18962197 -0.16330047 0.23908956 0.0632981 -0.26772472
0.03321975 0.078811556 0.2453632 0.011077331 0.47089618 -0.20848611 -0.09965354 0.17378847
0.3002881 -0.2723668 -0.16005652 0.15122685 -0.18619266 -0.24978 0.13073555 -0.093629695
-0.21300294 -0.23435919 0.11839382 0.18091749 -0.24631546 0.039485186 -0.012796996 -0.45998505
-0.008147518 -0.3219623 -0.11262513 0.10239533 0.027217288 0.28895515 0.39186 0.19221725
-0.2493467 0.3114792 -0.057063714 -0.024855673 0.004441292 0.10986971 0.36531982 0.2398716
-0.034521382 0.011990392 0.09526345 -0.08119358 -0.071957916 -0.09156373 -0.1496715 -0.056879863
-0.10276163 -0.02851669 -0.10632644 0.0059527275 -0.45989674 0.014765813 -0.17846666 0.2177515
0.26056036 -0.09540146 -0.053065427 0.18842654 -0.013399733 0.037293594 -0.25967267 0.33908802
-0.057954118 0.085932635 -0.33291012 -0.14682166 0.036859654 -0.28442475 0.013914797 0.07775295
-0.1945408 -0.04530631 -0.24292389 -0.12915656 -0.15517157 -0.1568036 0.19747467 -0.019727182
-0.15399109 0.085866734 0.3464817 0.023536254 0.35824886 -0.100692905 0.22108333 0.32578087
0.026128195 -0.07836433 -0.2867172 0.21282516 0.11697085 0.12093488 0.17226306 0.040763587
0.24960455 0.17222747 0.0040515824 -0.2400474 0.08993329 -0.13209745 0.29657358 0.07066831
-0.33540606 -0.199422 -0.06399363 -0.34841633 0.061344255 -0.116008736 0.28616056 -0.0661142
0.17065305 0.04520704 -0.10628407 -0.087195955 0.10349077 0.08018359 -0.2486663 -0.32082254
-0.24833885 0.23633353 0.35219488 -0.29562283 -0.06675974 0.22981349 0.10286431 0.47191772
0.30493322 -0.096456535 -0.16333802 -0.3556349 0.19047599 0.23745127 -0.20707257 -0.25395018
0.032663405 0.020537926 -0.25773364 0.18571316 -0.28289363 0.014356155 -0.02858065 -0.12583977
0.38542974 0.0095134545 -0.1855465 0.09652053 0.14155011 0.1342402 0.18976891 -0.14898968
0.2403442 0.260846 0.10838045 -0.2764481 -0.10560125 0.07185061 0.011987034 -0.3475409
-0.41197562 -0.28564987 0.28451484 -0.18649164 -0.19870907 0.1046445 0.006864783 -0.0162018
-0.15159059 -0.24421406 -0.24654327 0.2516882 0.039238263 -0.16717988 -0.3778362 0.26804298
0.24112408 -0.30072224 -0.06183177 0.35302305 0.17076825 0.5002523 0.3390203 -0.27107945
0.36583975 0.011342794 -0.1463563 -0.059194654 -0.27126637 -0.34950733 0.2650713 -0.16776647
0.25353134 -0.06925781 0.2302367 0.09488358 -0.12132366 0.24646316 0.32342777 -0.30717447
00000000: 9c43 1a3e f644 883c 8e8b 693c 01f0 6a3d
00000010: d828 87be 3660 063d 19d7 9dbe 7be3 cd3d
00000020: 0196 763e c834 9e3e 0f83 4ebd 8b4a 9d3d
00000030: cf53 313d c9af b7be f43a 39be a15e 51bd
00000040: 8601 57be 86cb 8fbe a8dc 373e c053 9abe
00000050: 41a6 543d 2ecc 17be a500 fabd b2c6 cbbc
00000060: 787f 68be f3c8 28bd 3355 c8bd cb5a fbbe
00000070: a70e 263d dc4f a13e 6170 86be e598 cabd
00000080: 5cdf 7f3e 6ea7 4fbd 32b1 50be ba51 8e3c
00000090: e35f b1be 4672 cebe ead4 e0bc 1e91 c6bc
000000a0: 751f b0be 7165 a43c 5649 293e fb57 9f3d
000000b0: 7d58 963e fa97 fcbd 85dc 943e 67df f93c
000000c0: bd0d dcbe 4e0e 6f3e bb38 c73e 432c 423e
000000d0: 3d38 27be e5d3 743e 6fa2 813d 3713 89be
000000e0: 6f11 083d f467 a13d 7e40 7b3e b27d 353c
000000f0: 4e19 f13e 627d 55be 2817 ccbd 9bf5 313e
00000100: 5dbf 993e a973 8bbe dbe5 23be 36db 1a3e
00000110: 4aa9 3ebe 54c6 7fbe 8adf 053e edc0 bfbd
00000120: 711d 5abe dbfb 6fbe 7678 f23d 6f42 393e
00000130: 1f3a 7cbe 38bb 213d 7eaa 51bc 2983 ebbe
00000140: 2b7d 05bc 3ed8 a4be 01a8 e6bd a5b4 d13d
00000150: caf6 de3c eef1 933e e0a1 c83e 99d4 443e
00000160: be54 7fbe 347a 9f3e a4bb 69bd 209e cbbc
00000170: 4288 913b 5f03 e13d 330b bb3e e7a0 753e
00000180: 4b66 0dbd 5973 443c 7c19 c33d d248 a6bd
00000190: ac5e 93bd c485 bbbd 7c43 19be dcfa 68bd
000001a0: b174 d2bd d59b e9bc adc1 d9bd 190f c33b
000001b0: 9677 ebbe 4fec 713c f7bf 36be 40fa 5e3e
000001c0: 2b68 853e d761 c3bd 225b 59bd e3f2 403e
000001d0: 8e8a 5bbc 2bc1 183d d1f3 84be f29c ad3e
000001e0: 4c61 6dbd 73fd af3d 3273 aabe 6b58 16be
000001f0: 26fa 163d 1fa0 91be e4fa 633c f03c 9f3d
00000200: b435 47be 1c93 39bd 0ac1 78be 9e41 04be
00000210: 4ce5 1ebe 1f91 20be cd36 4a3e e69a a1bc
00000220: d7af 1dbe e6da af3d 0d66 b13e 1acf c03c
00000230: 656c b73e 1538 cebd ab63 623e c0cc a63e
00000240: cc0a d63c 7a7d a0bd 99cc 92be d7ee 593e
00000250: 6a8e ef3d b5ac f73d ba65 303e b8f7 263d
00000260: 5698 7f3e 665c 303e 23c3 843b fcce 75be
00000270: f22e b83d 8e44 07be 7ed8 973e 8cba 903d
00000280: 58ba abbe 4835 4cbe 180f 83bd a063 b2be
00000290: 1d44 7b3d fd95 edbd a383 923e e266 87bd
000002a0: acbf 2e3e 042b 393d 76ab d9bd cb93 b2bd
000002b0: f8f2 d33d 4b37 a43d 61a2 7ebe da42 a4be
000002c0: 8a4c 7ebe 6b01 723e e352 b43e e05b 97be
000002d0: 55b9 88bd 3a54 6b3e 86aa d23d 339f f13e
000002e0: 3520 9c3e 018b c5bd 1542 27be c715 b6be
000002f0: 230c 433e 6d26 733e d50a 54be c205 82be
00000300: 10ca 053d 273f a83c aaf5 83be 972b 3e3e
00000310: 6fd7 90be 1436 6b3c f821 eabc 24dc 00be
00000320: 0c57 c53e 52de 1b3c e7ff 3dbe 8eac c53d
00000330: 83f2 103e 4376 093e c852 423e c090 18be
00000340: ca1c 763e 9b8d 853e 92f6 dd3d 9b8a 8dbe
00000350: 7845 d8bd 6a26 933d 4465 443c e1f0 b1be
00000360: 78ee d2be b340 92be eeab 913e aaf7 3ebe
00000370: 647a 4bbe db4f d63d f9f1 e03b a3b9 84bc
00000380: 903a 1bbe 4013 7abe d775 7cbe 47dd 803e
00000390: 4db8 203d 3431 2bbe bf73 c1be ee3c 893e
000003a0: 3be9 763e 44f8 99be 4f43 7dbd 70bf b43e
000003b0: dfdd 2e3e 8910 003f 1294 ad3e edca 8abe
000003c0: 594f bb3e 20d7 393c 6dde 15be 1876 72bd
000003d0: 6de3 8abe a0f2 b2be 6db7 873e f9ca 2bbe
000003e0: dcce 813e 0ad7 8dbd 2bc3 6b3e 5352 c23d
000003f0: 8a78 f8bd d760 7c3e 5398 a53e f945 9dbe
