src/control/nn_params/Go1Footstand/hidden_3_kernel.npy (npy, 12416 bytes, 1 tensors)

array f4 [128, 24]
000000 a9 6f ce bc cf 36 87 3d 1a 55 40 bc 7a 63 91 bd
       -0.025199728 0.06602251 -0.01173904 -0.07099052
000010 cc 2f 42 3d 4e c0 ab bd a4 99 cb bb a2 30 f7 3c
       0.047408864 -0.083862886 -0.0062133837 0.030174557
000020 f1 98 88 bd 58 81 98 bd fa b9 9d 3d 04 0c 91 be
       -0.06669796 -0.07446545 0.07701488 -0.2832948
000030 8f 2c 2a bd d7 fa 8f 3c 4b 98 06 3d b4 f4 30 3c
       -0.0415464 0.017575664 0.03286008 0.010800529
000040 90 40 b2 3c 6f 5f 7e bd ac ad 8c bd 97 e1 18 3d
       0.021759301 -0.06210273 -0.06869063 0.037324514
000050 5f 5b 1d bc 03 65 36 bd d2 af 9b 3c 4a b9 88 3d
       -0.009604304 -0.044529926 0.019004736 0.06675966
000060 f3 1d b1 bc 35 cc 75 3c 7d 1d 76 bc 4b f2 d6 bd
       -0.021620726 0.0150023 -0.015021679 -0.104954325
000070 2d 58 aa bd f6 58 89 3d a3 c6 b9 3d 95 75 73 3d
       -0.083175994 0.06706421 0.0907109 0.059438307
000080 40 5a cb bd 7b 90 f7 3d 81 4a 48 3d d0 48 5d be
       -0.09929323 0.12088104 0.048899177 -0.21609807
000090 d9 db 8f 3c e8 d5 84 bd 39 99 18 bd 2a a5 4a bd
       0.017560886 -0.06486112 -0.0372555 -0.04947392
0000a0 d1 e4 ea bc ff 36 d0 bd 9f c8 12 3d 6b 4e 3b 3d
       -0.028673561 -0.1016674 0.03583586 0.045729082
0000b0 62 8d 1c 3d 23 ad fe bc 25 74 02 be 31 49 e6 3d
       0.03822077 -0.031088417 -0.12739618 0.11244429
0000c0 4e d2 17 3d 1e a2 b9 bd bf e6 fe 3d 88 16 27 bd
       0.037065797 -0.090641245 0.12446355 -0.04079297
0000d0 69 8d e1 bc db 26 45 3d 77 b3 4f 3c 9f 5d ed 3d
       -0.02753325 0.04813276 0.012677065 0.115901224
0000e0 d0 fc 19 bd 3d ba 11 3d e7 64 5a bd f3 37 02 bd
       -0.037594616 0.035578 -0.053318884 -0.03179164
0000f0 5a a5 02 3d 1d 80 19 bd b9 69 01 3d 8d b6 63 bd
       0.031895973 -0.037475694 0.031594966 -0.055594016
000100 01 e6 52 bc d3 84 3e bd eb 6b cb bd fd ed 11 bd
       -0.01287222 -0.04651339 -0.09932693 -0.035627354
000110 f6 31 6e 3c 3a 7a c0 bd a7 f5 4f 3c 7b 9d e7 3a
       0.014538279 -0.09398313 0.012692845 0.0017670834
000120 27 23 a3 3d 71 25 bd bc 8f 5f f5 bd 4e 92 18 3a
       0.07965689 -0.023089143 -0.11981117 0.0005820141
000130 c1 34 b3 3d 72 18 e8 3c 78 04 1a 3e e6 11 83 3d
       0.087502964 0.028331969 0.15040767 0.06399898
000140 2a b7 a0 3d d6 1a 51 3a 70 bc 85 3d 01 1a 38 be
       0.07847436 0.0007976716 0.06530082 -0.1797867
000150 fd 6c 60 3d 02 77 93 bd e3 c3 03 bb 09 6f 3c bc
       0.05479144 -0.07200433 -0.0020105771 -0.011501082
000160 b3 75 68 3c ac 24 4e 3d a8 fc b9 3d 37 3b 0a 3d
       0.014188218 0.05032794 0.090813935 0.033747878
000170 68 01 71 3d ea 9c 81 3d 74 a4 2d 3e d4 88 3e 3d
       0.05883923 0.06328757 0.16957265 0.04651721
000180 66 34 44 3d b8 cb bc 3c 0f e4 f4 3c 14 70 19 3d
       0.047901534 0.02304636 0.029893903 0.0374604
000190 77 ce 06 be e9 49 0f bc e0 9b 88 bd 11 14 8a 3d
       -0.13164698 -0.008745649 -0.06670356 0.067421086
0001a0 2a d3 72 bd f9 eb b3 bd 5e dd 17 bd a4 01 30 bd
       -0.059283413 -0.087852426 -0.037076347 -0.042970315
0001b0 58 b2 ee bc 26 b9 e5 3d 9b 79 65 bd 16 94 c2 3c
       -0.029137775 0.11216955 -0.056024175 0.023752254
0001c0 80 9b 5e bd cb cd 30 bd f6 80 88 bd f8 57 d1 bd
       -0.054347515 -0.04316501 -0.06665222 -0.10221857
0001d0 b1 b2 2a bd 0c d9 49 bd ab 4b 09 3c 7a 6b 27 3d
       -0.04167432 -0.049279258 0.008379857 0.040873982
0001e0 03 60 da bd c1 1e ea 3b 8c a7 bb bd 56 8b a0 bd
       -0.10662844 0.0071447794 -0.091628164 -0.07839076
0001f0 d5 38 6e bd b1 f8 04 bb 52 83 65 3d b7 ab df 3d
       -0.058159668 -0.0020289833 0.05603344 0.10921424
000200 e5 bb 9c 3b c9 8e 9c 3c 80 b3 35 3c f7 8a 07 3c
       0.004783141 0.019111054 0.011090159 0.008272878
000210 2c 18 98 bc 8d 38 36 3d 5d 93 d0 3c 76 05 22 bd
       -0.018566214 0.044487525 0.025460893 -0.03955599
000220 fe 1c 92 bd c0 a0 a5 bc 63 cc d5 bc 04 9e 1e 3d
       -0.07134436 -0.020218253 -0.026098436 0.038724914
000230 1e 34 4c bd 4e a5 65 3d cd 20 01 bc e3 04 59 bd
       -0.04985439 0.05606585 -0.0078813555 -0.052983176
000240 16 fd 75 3d 33 02 51 3d 18 5d 35 3e 44 cb 30 bc
       0.060055815 0.051027488 0.17711294 -0.01079065
000250 c4 76 90 3d f6 18 1b 3e e1 64 c2 bd 0d c2 97 bd
       0.07053903 0.1514624 -0.094918974 -0.07410059
000260 68 c4 c6 3c f0 3c 7e 3d 53 9b 06 bd 8e 63 a4 3d
       0.024263576 0.062069833 -0.032862972 0.08026801
000270 f6 62 40 bd b4 43 06 be cb ee da 3c 32 65 89 bd
       -0.046969377 -0.13111764 0.026725193 -0.067087546
000280 cd 24 d6 bd 85 2f c8 bd b6 8e ce bd e2 fe d5 bd
       -0.10456238 -0.09774689 -0.10085814 -0.10449006
000290 4c 49 02 be 84 27 f9 bd b1 87 c4 bd 89 01 af 3c
       -0.12723273 -0.1216574 -0.095961936 0.021363037
0002a0 29 29 d1 3c 6b ab cf 3d 71 15 99 3c 37 8b b5 3d
       0.025532322 0.10140117 0.018686982 0.08864444
0002b0 78 93 05 3d ad 29 5e 3d d8 d9 07 3e 0d bb a7 bd
       0.03261134 0.054238964 0.13266695 -0.08189974
0002c0 3c e4 04 bd 86 0d 95 bd 09 b5 b9 3c 20 f5 80 3d
       -0.032444224 -0.0727797 0.022669332 0.06296754
0002d0 e1 e7 09 bd b4 0a 25 bd 2b fe 42 3d 35 7a a4 bd
       -0.033668403 -0.04029341 0.047605675 -0.08031122
0002e0 30 2c 94 3c 4d 29 64 bd 48 f0 ad bd 09 10 f5 3c
       0.018087476 -0.05570345 -0.08493096 0.029914873
0002f0 8c 7c 80 bd e1 c2 8e bd 7d 4d ba bd 2e 83 a8 bd
       -0.062737554 -0.06970764 -0.09096811 -0.082281455
000300 9d 8f f8 3c 12 1c bb 3c e4 d9 e0 bd 07 49 9e 3d
       0.030341918 0.022840533 -0.10979059 0.077287726
000310 27 77 a0 3d 5b c5 a4 bd aa f8 c2 3c 38 b0 b9 bd
       0.078352265 -0.08045455 0.023800213 -0.09066814
000320 ed 51 5b bd ae ba 90 be 37 29 00 3d 3e 44 8f 3d
       -0.053544927 -0.28267425 0.031289306 0.06995438
000330 bc f8 a2 3c ec 48 75 bd 75 53 fb 3d 1d 5b 96 3d
       0.019893996 -0.059883997 0.122717775 0.07341597
000340 48 14 8a 3d af 6a 99 3d 8d 9f 41 3d 03 db 37 3e
       0.067421496 0.074910514 0.0472713 0.1795464
000350 3f ce de 3c 69 6f 9c 3c 75 1d 39 3e 72 bb 5e 3d
       0.027197955 0.019096093 0.18077643 0.05437798
000360 d2 01 d9 3c 0d 60 c8 3d f3 53 06 bd 7b 82 0e 3e
       0.026490126 0.09783945 -0.032794904 0.13916962
000370 bc 7b 3c bb 47 2a 23 3d e4 67 3b bd c2 c4 95 bc
       -0.0028760275 0.03983524 -0.045753375 -0.018282298
000380 d1 da e1 3c 0e 6a c3 bd fb da 37 3d c6 8f 34 3d
       0.02757016 -0.09541713 0.04488657 0.044082426
000390 5a 6e 9d 3d e5 ba 09 3c f8 04 7e 3d d2 e2 71 3d
       0.076870635 0.008406376 0.062016457 0.059054203
0003a0 ef e5 cf bd a6 fe 0f 3d b7 2b 8b bc 88 fb be 3d
       -0.10151278 0.03515496 -0.016988618 0.093253195
0003b0 f1 77 9b 3c 29 d4 ef bd 47 bf 86 bd 41 5a ff bc
       0.018978091 -0.11710388 -0.06579452 -0.031170966
0003c0 3c 21 33 3d 26 81 c7 bc ab a9 cf 3c c4 bf aa bc
       0.043732867 -0.024353575 0.025349459 -0.020843394
0003d0 a2 97 67 3d 68 ba 40 3d 8c 41 c4 bb 1e 82 c9 bc
       0.056541093 0.04705277 -0.005989259 -0.024598178
0003e0 d2 0e 17 3e cf f9 26 be 08 2b 93 3d 35 8d c6 bc
       0.14751747 -0.16306232 0.07185942 -0.024237255
0003f0 53 11 88 3d bd 49 90 3b c1 ed 52 3c 7b dc 6d 3d
       0.06643929 0.0044033215 0.012874068 0.058071595
