src/control/nn_params/Go1Footstand/hidden_2_kernel.npy (npy, 131200 bytes, 1 tensors)

array f4 [256, 128]
0.08953197 -0.15634595 0.07526322 -0.000107249 -0.005750179 0.06734137 -0.059944116 0.08111903
-0.040890064 -0.1658285 -0.019959604 0.03780465 0.04240108 -0.2008016 0.06596473 -0.03927966
0.086488314 0.047863074 0.015864043 -0.07900651 0.09455254 -0.0408008 0.1880259 -0.01598608
-0.017660482 -0.07729741 -0.06324888 -0.019379055 0.108724624 0.025114592 -0.18504226 0.057593364
-0.006023433 0.04076228 -0.0029995756 0.035371535 0.01737516 -0.0056702336 0.11941779 -0.00367985
-0.11234334 0.02945701 -0.09406698 -0.1867027 0.05307717 0.08959718 0.013454613 -0.014257914
-0.034735803 -0.011922231 0.14555311 0.0018172093 0.0930146 0.006847042 -0.019313272 -0.005258642
-0.09220844 0.07938681 0.024618888 -0.049381033 -0.022190874 0.02888334 0.06587097 0.029856442
-0.030104922 0.06711403 -0.10286519 0.1244021 -0.072476305 -0.14106509 0.040942308 0.095998414
-0.026943445 0.008245495 0.093987554 0.087289125 -0.13409281 -0.10976115 -0.046389043 -0.15527084
-0.04725015 -0.12972426 0.06752814 0.007276698 0.07954255 0.01537916 0.004695488 -0.03816402
0.09482099 -0.011611515 -0.05724363 -0.06505363 -0.120307535 -0.0011792125 0.16597165 0.070739016
-0.07465445 0.004071842 0.02832154 -0.011894005 -0.023119774 0.01955579 0.105474435 -0.07626224
0.069039226 0.018686363 0.102462485 -0.021696992 -0.13276066 -0.12556785 -0.06859369 0.14072438
0.1607853 0.005537112 -0.044079106 -0.041611385 -0.06276879 -0.0011668465 0.03789117 -0.0079334695
0.0100853555 -0.0028236136 0.08643701 0.02173164 -0.118261315 -0.010407235 0.038683124 0.0459757
-0.11213781 0.05643998 -0.1519386 0.0855174 -0.010055799 -0.001736125 -0.15182272 -0.066347405
0.006667496 -0.14371046 -0.035673622 0.0029479382 0.10317954 -0.008725566 -0.08835179 -0.044238918
-0.02586723 -0.11863845 0.10549482 -0.14502324 -0.0037706825 0.07578953 -0.027691932 -0.031478148
0.019926347 0.03880104 -0.045017052 0.08656287 -0.097530134 -0.01134387 0.00069140515 -0.08866568
-0.1782986 0.055099532 0.07440343 -0.06605188 -0.00010418477 -0.097687155 -0.06577082 0.0856026
0.045915704 -0.05685128 -0.07027761 -0.1143872 -0.13012569 0.022429083 -0.0824657 -0.060898222
-0.011230163 -0.27948302 -0.050308608 0.050911367 -0.042088617 -0.026308598 -0.016806414 0.0963826
0.07835961 0.0250812 0.0440059 -0.2118018 -0.020433526 0.01284918 -0.11230773 -0.029715689
-0.13423143 -0.06788746 -0.028287863 -0.08576304 0.08841397 -0.007810939 -0.029033497 -0.06635186
-0.11418552 -0.13144912 -0.016251113 0.101858884 -0.015443718 -0.0448785 -0.065990545 0.015640574
0.022857094 -0.02399121 -0.053173043 -0.013844686 -0.095374815 -0.16439612 0.056137078 0.09026626
-0.020648291 -0.014662346 -0.14867905 -0.036201704 -0.013141329 0.1397623 -0.06334512 0.0033768632
-0.10593237 -0.1401321 0.057529584 -0.07163202 -0.08976865 -0.043301325 -0.0028314497 -0.03838953
0.022693293 -0.04223564 -0.017192323 -0.20014918 -0.04330582 0.079561844 0.04704833 -0.11047715
-0.06843263 0.10693284 -0.018600052 -0.002157068 -0.083277985 -0.014915405 -0.0041169724 0.06288119
0.0770108 -0.12560184 -0.07656153 0.022459768 0.08123393 0.0045183413 -0.056741603 -0.023297869
00000000: 8a5c b73d 2719 20be 9a23 9a3d deea e0b8
00000010: ff6b bcbb 46ea 893d f687 75bd bc21 a63d
00000020: 577c 27bd f2ce 29be 5382 a3bc 0cd9 1a3d
00000030: c1ac 2d3d ef9e 4dbe 8418 873d b5e3 20bd
00000040: c920 b13d 120c 443d 4ff5 813c 2ace a1bd
00000050: c3a4 c13d bd1e 27bd dd89 403e 3df5 82bc
00000060: b7ac 90bc 1b4e 9ebd a188 81bd d3c0 9ebc
00000070: 04ab de3d 1ebd cd3c b87b 3dbe 05e7 6b3d
00000080: 3860 c5bb 59f6 263d 8794 44bb bee1 103d
00000090: 5a56 8e3c 5ecd b9bb 5091 f43d a329 71bb
000000a0: 4414 e6bd d44f f13c 30a6 c0bd fe2e 3fbe
000000b0: 7267 593d ba7e b73d bd70 5c3c 079a 69bc
000000c0: 2147 0ebd 7655 43bc e00b 153e 6d2f ee3a
000000d0: 707e be3d 275d e03b de36 9ebc b050 acbb
000000e0: c7d7 bcbd 8d95 a23d 8dad c93c c443 4abd
000000f0: a3c9 b5bc c19c ec3c 5ce7 863d 7f95 f43c
00000100: 999e f6bc 1573 893d fcaa d2bd 87c6 fe3d
00000110: 756e 94bd 5e73 10be 1fb3 273d d19a c43d
00000120: 80b8 dcbc 1d18 073c 8c7c c03d a4c4 b23d
00000130: a04f 09be 74ca e0bd 7002 3ebd 52ff 1ebe
00000140: 6089 41bd 70d6 04be 324c 8a3d 5e71 ee3b
00000150: 34e7 a23d dff8 7b3c 9cdc 993b e051 1cbd
00000160: 8231 c23d 393e 3ebc 4c78 6abd d63a 85bd
00000170: cc63 f6bd ce8f 9aba 79f4 293e 9edf 903d
00000180: 6fe4 98bd 166d 853b 9302 e83c 13df 42bc
00000190: ae65 bdbc 7733 a03c fb02 d83d 612f 9cbd
000001a0: 7064 8d3d 2514 993c dad7 d13d e4bd b1bc
000001b0: 69f2 07be dc94 00be d97a 8cbd 0d1a 103e
000001c0: e7a4 243e a970 b53b 4b8c 34bd b370 2abd
000001d0: ec8c 80bd dff0 98ba c533 1b3d 62fb 01bc
000001e0: 0c3d 253c 600c 39bb e305 b13d 8d06 b23c
000001f0: fd32 f2bd 1b83 2abc 3272 1e3d 0451 3c3d
00000200: 82a8 e5bd 9c2d 673d cb95 1bbe bf23 af3d
00000210: 14c1 24bc b08e e3ba 6a77 1bbe 26e1 87bd
00000220: 037b da3b d628 13be 811e 12bd 3232 413b
00000230: cb4f d33d adf5 0ebc c9f1 b4bd de33 35bd
00000240: 83e7 d3bc b7f8 f2bd ab0d d83d f980 14be
00000250: 8e1d 77bb 8b37 9b3d 31da e2bc 3bef 00bd
00000260: 943c a33c d7ed 1e3d cd63 38bd e047 b13d
00000270: e1bd c7bd a4db 39bc 6a3f 353a 5a96 b5bd
00000280: e893 36be 0cb0 613d d360 983d 3546 87bd
00000290: c67d dab8 3410 c8bd dab2 86bd 6a50 af3d
000002a0: 1b12 3c3d e3dc 68bd b5ed 8fbd d643 eabd
000002b0: ab3f 05be 32bd b73c c7e3 a8bd 6a70 79bd
000002c0: b8fe 37bc 6618 8fbe 6610 4ebd 7088 503d
000002d0: 1d65 2cbd 2185 d7bc 9bad 89bc 3e64 c53d
000002e0: 017b a03d 1777 cd3c 883f 343d 92e2 58be
000002f0: 3664 a7bc 5e85 523c 9801 e6bd 516e f3bc
00000300: f773 09be 9508 8bbd f3bb e7bc 88a4 afbd
00000310: 6212 b53d e8f2 ffbb a8d7 edbc 7ce3 87bd
00000320: 19da e9bd 999a 06be 0e21 85bc 649b d03d
00000330: a607 7dbc 85d2 37bd 0d26 87bd a920 803c
00000340: cd3e bb3c 3789 c4bc facb 59bd d2d4 62bc
00000350: df53 c3bd 7557 28be feef 653d 84dd b83d
00000360: 9b26 a9bc 563a 70bc 523f 18be 3d48 14bd
00000370: bb4e 57bc d91d 0f3e 16bb 81bd 5d4e 5d3b
00000380: 12f3 d8bd ca7e 0fbe 24a4 6b3d cfb3 92bd
00000390: a0d8 b7bd bb5c 31bd d88f 39bb 573e 1dbd
000003a0: 49e7 b93c 47ff 2cbd ead6 8cbc e8f3 4cbe
000003b0: 7261 31bd 52f1 a23d c0b5 403d d841 e2bd
000003c0: 6826 8cbd 9bff da3d 235f 98bc 995d 0dbb
000003d0: a68d aabd be5f 74bc abe7 86bb dac7 803d
000003e0: d7b7 9d3d c59d 00be 4bcc 9cbd 8cfd b73c
000003f0: fa5d a63d 980e 943b e269 68bd 2cdb bebc
