examples/mujoco_Go1/nn_params/Go1JoystickFlatTerrain/hidden_1_kernel.npy (npy, 524416 bytes, 1 tensors)

array f4 [512, 256]
0.00061875436 -0.06316707 -0.018065166 0.053748246 0.053120084 -0.06882408 0.104009986 -0.018777937
0.044504862 -0.049275503 0.06799889 0.03485578 0.034481384 0.078958824 0.037304193 -0.13404855
0.03917378 -0.056655772 0.04998301 -0.1560373 -0.04858613 -0.030667875 0.07281468 -0.07361074
0.029505678 -0.103851005 0.034256253 0.09683168 0.04793796 -0.015381588 0.049157105 -0.16946755
-0.029350262 0.05859636 -0.17548773 0.03711972 -0.0466488 0.14806399 -0.028361047 0.053736925
-0.03159988 -0.038203392 0.0781226 0.02083917 0.039952856 0.069778815 -0.14705504 0.031233577
-0.114930935 0.123907626 0.08166937 -0.062610395 -0.18103176 0.0784551 -0.008783987 -0.051307134
0.10112927 0.04543863 0.12931857 0.036041442 -0.070981815 -0.16970353 -0.055052895 0.17389217
-0.010577016 0.02174758 -0.13227186 0.137592 -0.038230035 -0.029847216 -0.0072215446 0.04694211
0.03128563 -0.002177102 0.069914535 -0.07445497 0.07753078 -0.10366453 -0.006256612 0.04353299
0.045527574 0.051499076 -0.09249581 0.06032984 0.062282067 -0.015344955 0.07850316 0.026778322
0.0924588 0.023714716 0.12799738 0.023336431 -0.03414987 0.1376473 -0.03908803 -0.1335416
0.115100496 0.12407852 -0.037061546 -0.18796217 0.05248398 0.24085025 0.34973565 -0.12519962
-0.038794972 0.056009326 -0.021965912 -0.16095752 -0.079382926 -0.08862138 0.049941864 -0.017092273
0.054792847 0.024678202 -0.08213184 -0.17615338 -0.0606002 0.08758455 0.05450917 -0.07027816
-0.05768439 0.1454657 0.1770779 0.18594407 -0.059511192 -0.13639502 -0.014270013 -0.04096816
0.044019207 -0.02688818 0.126876 0.03992367 -0.124653585 -0.056672394 0.19700684 -0.04937999
0.015267655 0.059879992 -0.12690255 -0.036498837 0.12949935 0.04024777 -0.22708082 0.1011641
-0.011017576 0.048978113 -0.036350884 -0.07622325 -0.09640275 0.16465822 0.038392484 -0.12504561
0.013641656 0.031502455 0.059018116 -0.03135943 0.10186736 -0.1279568 -0.01802993 -0.029571908
0.0015603134 -0.0888147 0.21813245 -0.13256602 -0.029260796 0.2646822 0.15135756 0.02328501
-0.040550444 -0.018018194 0.12202513 0.059309844 -0.033994686 0.017625317 -0.08431914 0.17682737
0.043297566 0.009832287 0.10056049 -0.04588664 0.041684743 -0.06572424 0.1226563 -0.071722604
0.0735031 -0.010985498 0.02843461 0.022565685 0.09575973 -0.089198425 0.14918453 -0.044635322
0.042360473 0.108291686 0.027345458 0.054164898 -0.055015832 -0.119055144 -0.049980484 0.038775463
-0.025031785 -0.02416969 0.019350417 0.09800314 0.0034634806 -0.01567863 -0.015591733 0.03750945
-0.021555023 0.024161205 -0.020750277 0.048947956 0.094677955 -0.007996337 -0.048378192 0.0067983046
0.14635555 -0.10773722 0.22060975 0.10076802 0.009089795 -0.10415743 0.0651301 -0.18947066
-0.07933053 -0.025710957 0.035194058 0.10024377 0.10694951 -0.019709378 0.089847006 -0.0929995
-0.0034007416 -0.06531483 0.016536891 0.045640107 0.04254224 0.0601239 0.054989558 0.036410782
0.14305855 -0.011081904 0.12956452 0.086624496 0.04215106 0.021418482 -0.16136503 0.11400981
0.26314834 0.11072748 -0.08525255 0.0704781 -0.0425327 -0.197288 0.0287128 0.016821124
00000000: e733 223a bd5d 81bd 66fd 93bc 1f27 5c3d
00000010: 7294 593d a4f3 8cbd 3003 d53d 30d4 99bc
00000020: bb4a 363d 1cd5 49bd 0143 8b3d efc4 0e3d
00000030: 5a3c 0d3d 2ab5 a13d 48cc 183d 0644 09be
00000040: af74 203d e20f 68bd fcba 4c3d 3ec8 1fbe
00000050: 4002 47bd 323b fbbc dd1f 953d 3ac1 96bd
00000060: e4b5 f13c d6af d4bd 4950 0c3d b04f c63d
00000070: 985a 443d 0e03 7cbc f658 493d e788 2dbe
00000080: f66f f0bc bd02 703d 0eb3 33be d90a 183d
00000090: d012 3fbd 169e 173e 6d55 e8bc 401b 5c3d
000000a0: e06e 01bd 297b 1cbd befe 9f3d e8b6 aa3c
000000b0: 9ba5 233d 32e8 8e3d 9995 16be 8fdd ff3c
000000c0: e960 ebbd 48c3 fd3d 4542 a73d e139 80bd
000000d0: 6460 39be 11ad a03d b6ea 0fbc 6e27 52bd
000000e0: dd1c cf3d db1d 3a3d 166c 043e 31a0 133d
000000f0: ea5e 91bd c3c6 2dbe 257f 61bd ca10 323e
00000100: 384b 2dbc fb27 b23c 4672 07be ebe4 0c3e
00000110: 1997 1cbd 2682 f4bc b5a2 ecbb 5f46 403d
00000120: 5c25 003d b6ad 0ebb 5a2f 8f3d d97b 98bd
00000130: 75c8 9e3d 124e d4bd 4404 cdbb a64f 323d
00000140: 1f7b 3a3d b2f0 523d 716e bdbd 6c1c 773d
00000150: 7b1b 7f3d 6869 7bbc 44c6 a03d 365e db3c
00000160: 0a5b bd3d 5d45 c23c bf11 033e 0b2c bf3c
00000170: bce0 0bbd 6af3 0c3e c51a 20bd 21bf 08be
00000180: cfb9 eb3d e11c fe3d d9cd 17bd 2879 40be
00000190: 71f9 563d 73a1 763e 8d10 b33e 5434 00be
000001a0: 7ae7 1ebd 096a 653d dbf1 b3bc 0cd2 24be
000001b0: 8493 a2bd 207f b5bd d78f 4c3d 1805 8cbc
000001c0: 776e 603d f129 ca3c bd34 a8bd 8d61 34be
000001d0: ea37 78bd 875f b33d 0245 5f3d ffed 8fbd
000001e0: 7846 6cbd f6f4 143e e953 353e 1f68 3e3e
000001f0: 02c2 73bd 23ab 0bbe c6cc 69bc 3bce 27bd
00000200: 7c4d 343d 9a44 dcbc c8eb 013e 0187 233d
00000210: 614a ffbd 5021 68bd 29bc 493e ac42 4abd
00000220: 3025 7a3c b944 753d bef2 01be ce7f 15bd
00000230: 7a9b 043e d8da 243d e087 68be 202f cf3d
00000240: 1083 34bc 469d 483d aae4 14bd ef1a 9cbd
00000250: ce6e c5bd 2a9c 283e 7041 1d3d f50b 00be
00000260: 4181 5f3c b808 013d fbbc 713d bf72 00bd
00000270: d69f d03d 1b07 03be 81b3 93bc c940 f2bc
00000280: 6e83 cc3a 7be4 b5bd 1d5e 5f3e 63bf 07be
00000290: 56b4 efbc 6d84 873e 7afd 1a3e 35c0 be3c
000002a0: 3918 26bd e49a 93bc 50e8 f93d e1ee 723d
000002b0: 033e 0bbd f862 903c 83af acbd 3c12 353e
000002c0: ca58 313d 9a17 213c a8f2 cd3d a1f3 3bbd
000002d0: 9fbd 2a3d 6e9a 86bd 3a33 fb3d 4de3 92bd
000002e0: cb88 963d 85fc 33bc b3ef e83c acdb b83c
000002f0: ad1d c43d aaad b6bd d4c3 183e 87d3 36bd
00000300: 2d82 2d3d 08c8 dd3d 9503 e03c 03dc 5d3d
00000310: 4858 61bd 2fd3 f3bd 56b8 4cbd 05d3 1e3d
00000320: 750f cdbc 84ff c5bc c484 9e3c dfb5 c83d
00000330: 90fb 623b 7870 80bc 7874 7fbc 82a3 193d
00000340: 2994 b0bc b8ed c53c 7cfc a9bc a77d 483d
00000350: 84e6 c13d 1103 03bc 3628 46bd 50c4 de3b
00000360: 3bde 153e 55a5 dcbd 86e7 613e 775f ce3d
00000370: 5ded 143c 7e50 d5bd ee62 853d 9904 42be
00000380: 0b78 a2bd c99f d2bc a527 103d 9b4c cd3d
00000390: 5808 db3d 9075 a1bc b501 b83d 8676 bebd
000003a0: fade 5ebb c8c3 85bd 6078 873c 1ff1 3a3d
000003b0: c640 2e3d 7b44 763d bb3c 613d 7923 153d
000003c0: f17d 123e e090 35bc 90ac 043e 2f68 b13d
000003d0: 97a6 2c3d d075 af3c e03c 25be fa7d e93d
000003e0: 61bb 863e 17c5 e23d e498 aebd d256 903d
000003f0: c536 2ebd de05 4abe 1b37 eb3c 74cc 893c
