examples/mujoco_Go1/nn_params/Go1JoystickFlatTerrain/hidden_0_bias.npy (npy, 2176 bytes, 1 tensors)

array f4 [512]
0	0xbecea766	-0.4036209
1	0xbe493dac	-0.19652432
2	0x3da023e0	0.078193426
3	0xbece667c	-0.40312564
4	0x3cbd94e2	0.023142282
5	0xbe55f0b1	-0.20892598
6	0xbec01b32	-0.37520748
7	0xbe36924b	-0.17829244
8	0x3d91e3e2	0.07123543
9	0xbd0df5d8	-0.034658283
10	0xbd1e33c5	-0.03862359
11	0xbcf78d35	-0.0302187
12	0xbedf53e3	-0.43618688
13	0xbe3df800	-0.18551636
14	0xbe458361	-0.19288398
15	0xbcb7c1d0	-0.022431284
16	0xbd42597b	-0.047448616
17	0xbe678681	-0.22609903
18	0xbd9efc77	-0.077629976
19	0xbe739682	-0.23787883
20	0xbe416129	-0.1888472
21	0xbe914fab	-0.28381094
22	0x3e4ba7cc	0.19888228
23	0xbe8542b6	-0.2602746
24	0x3e4e837c	0.20167345
25	0xbd375e3b	-0.0447676
26	0xbe2e9966	-0.17050704
27	0xbe101409	-0.14070143
28	0xbe6aeec2	-0.22942641
29	0xbd158f19	-0.03651342
30	0xbe4d35b2	-0.20040014
31	0xbee8fca0	-0.45505238
32	0xbe48fc38	-0.19627464
33	0xbe96b9fe	-0.29438776
34	0xbe563723	-0.2091947
35	0xbe744362	-0.2385383
36	0x3da90e1f	0.082546465
37	0xbd4899aa	-0.04897467
38	0x3dd3c3f9	0.10340113
39	0xbe519913	-0.2046855
40	0xbeaf2910	-0.34211016
41	0xbe210a3c	-0.1572656
42	0xbec19537	-0.37809154
43	0xbe45c674	-0.19313985
44	0xbdc15410	-0.09439862
45	0xbe959c11	-0.29220632
46	0x3df8388e	0.12120162
47	0xbdb2113d	-0.08694694
48	0xbec947bf	-0.3931255
49	0xbbdac507	-0.0066763195
50	0x3e0625bb	0.1310033
51	0xbe89b28f	-0.26894042
52	0xbdadcdeb	-0.08486541
53	0xbdc955e9	-0.09830839
54	0xbe201e7a	-0.15636626
55	0xbdc7cf2d	-0.097563125
56	0xbeef57af	-0.46746585
57	0x3d01274d	0.03153162
58	0xbe1d7ba9	-0.15379204
59	0xbeb04d32	-0.34433895
60	0x3b183c27	0.0023229213
61	0xbcdb8de0	-0.02680105
62	0xbeacd52b	-0.33756384
63	0xbed7e9df	-0.42170617
64	0xbef774a7	-0.48331186
65	0xbe8ea54b	-0.27860484
66	0xbed89a05	-0.42305008
67	0xbd51fe93	-0.05126817
68	0xbe8fe3ec	-0.28103578
69	0x3e029801	0.12753297
70	0xbe80e4b9	-0.25174502
71	0xbf007c5c	-0.5018976
72	0x3d0cbff2	0.03436274
73	0xbe883133	-0.26600036
74	0xbe603105	-0.218937
75	0xbe1bdec4	-0.15221697
76	0x3df4916b	0.11941799
77	0x3d35b1c7	0.044358995
78	0xbee1838b	-0.44045672
79	0xbdb16fa0	-0.08663869
80	0xbe5dcaee	-0.21659443
81	0xbdefa402	-0.11701204
82	0xbec8a42f	-0.39187762
83	0x3d805f93	0.06268229
84	0xbef38c74	-0.47568095
85	0xbea51cdb	-0.32248577
86	0xbdbf80fd	-0.093507744
87	0x3d1b24ac	0.03787677
88	0xbecff1de	-0.40614218
89	0xbd8d4317	-0.06897562
90	0xbe3fcce6	-0.18730506
91	0xbe53e444	-0.20692545
92	0xbec817d6	-0.39080685
93	0xbd15cfcb	-0.03657512
94	0x3d453798	0.04814872
95	0xbabcfe06	-0.0014418967
96	0x3c0d3e9c	0.008620884
97	0xbde4e887	-0.111771636
98	0xbdb5e527	-0.08881598
99	0xbedbb39c	-0.4291047
100	0xbe8098f8	-0.25116706
101	0xbe96d0ec	-0.2945627
102	0xbea7cd1f	-0.32773682
103	0xbe9000f4	-0.28125727
104	0xbd4d2888	-0.05008748
105	0x3e415070	0.1887834
106	0x3e7c68f0	0.24649405
107	0xbe7d39c9	-0.24729075
108	0xbe96f86a	-0.294864
109	0xbed758d0	-0.42059946
110	0xbe3438a9	-0.17599739
111	0xbe73212d	-0.23743124
112	0xbe4831a7	-0.19550191
113	0x3bc042a0	0.0058673173
114	0xbed17b80	-0.40914536
115	0xbd91d71a	-0.071211055
116	0xbdeb0b41	-0.11476756
117	0xbdb2392a	-0.087023094
118	0xbe8fcaf0	-0.28084517
119	0xbea595b0	-0.32340765
120	0xbd797224	-0.06089987
121	0xbe35eb51	-0.17765547
122	0xbdc30252	-0.09521927
123	0x3db77f2b	0.08959802
124	0xbdff8574	-0.12476626
125	0x3c40b10f	0.011760964
126	0x3de27096	0.1105663
127	0xbef7a61a	-0.48368913
128	0x3a9d966f	0.0012022982
129	0xbd0c9351	-0.03432018
130	0xbe3a603d	-0.18200774
131	0xbe915239	-0.28383043
132	0xbdfbcee9	-0.12295324
133	0xbeb3ba21	-0.35102943
134	0xbeb88ae3	-0.36043462
135	0xbe781cfc	-0.24229807
136	0xbd3c3926	-0.04595294
137	0xbe7c2c0b	-0.24626176
138	0x3e488447	0.1958171
139	0xbec117d8	-0.37713504
140	0xbe99e85f	-0.30060098
141	0xbe057ed9	-0.1303667
142	0xbe270826	-0.16311702
143	0xbefbfc2c	-0.4921583
144	0xbe783005	-0.24237068
145	0x3e148c72	0.145067
146	0xbe2b7473	-0.1674364
147	0x3cface9e	0.0306161
148	0xbe602628	-0.21889555
149	0xbd87cd69	-0.06630976
150	0x3d047a98	0.032343477
151	0x3d333d80	0.043759823
152	0xbe4c647e	-0.1996021
153	0xbdf6c285	-0.120488204
154	0xbe2aa567	-0.16664658
155	0x3d5ed6ac	0.054403946
156	0x3e22c705	0.15896232
157	0xbf097dd3	-0.5370762
158	0xbdc37c3f	-0.095451824
159	0xbd62f6fb	-0.05541132
160	0xbe447d9a	-0.19188538
161	0x3d00a6a4	0.03140892
162	0xbe21b2de	-0.15790889
163	0xbe68aa6d	-0.22721262
164	0xbdd86285	-0.10565666
165	0xbe89a29a	-0.26881868
166	0xbe8d8987	-0.27643988
167	0xbe2a1b88	-0.16612065
168	0xbe87a015	-0.2648932
169	0xbda4ae16	-0.08041017
170	0xbebadc8f	-0.36496398
171	0xbdc8f554	-0.098124176
172	0xbe2d6f18	-0.1693691
173	0xbe1a8b32	-0.15092161
174	0x3ea7347b	0.32657227
175	0x3dba14e1	0.090860136
176	0xbe65df9c	-0.22448581
177	0xbed39257	-0.41322586
178	0xbea94d47	-0.3306677
179	0xbee8b879	-0.4545324
180	0xbdecc192	-0.11560358
181	0xbdf07c30	-0.11742437
182	0xbea409ce	-0.3203873
183	0xbeb2a06f	-0.34888026
184	0xbd97388e	-0.07383834
185	0xbe747cb6	-0.23875698
186	0xbcddc1c7	-0.02706994
187	0xbdf8b5fe	-0.12144087
188	0xbed8c91c	-0.42340934
189	0x3de99658	0.11405629
190	0xbeb91f25	-0.36156574
191	0xbebd147c	-0.3692969
192	0xbe0f4b4e	-0.1399357
193	0xbe4d1d20	-0.20030642
194	0x3e23e71a	0.16006127
195	0x3cd0b431	0.025476547
196	0x3d34b78f	0.044120368
197	0xbea2ffc4	-0.3183576
198	0xbd9e8593	-0.07740321
199	0xbecc2b01	-0.3987656
200	0xbe80cbb5	-0.25155416
201	0x3d2b659b	0.041844945
202	0x3d8a7d07	0.06762128
203	0xbeb57516	-0.35440892
204	0xbd6e99d5	-0.058252174
205	0x3d105f49	0.03524712
206	0xbee55521	-0.4479151
207	0xbed43128	-0.41443753
208	0xbe18fa09	-0.14939131
209	0xbe409993	-0.18808584
210	0xbec1dc37	-0.37863323
211	0xbef67bb4	-0.48141253
212	0xbe9b78c4	-0.30365574
213	0xbeaf38eb	-0.34223112
214	0xbee9cbd6	-0.45663327
215	0xbdd15d4a	-0.102228716
216	0xbe6ea7c0	-0.23306179
217	0xbd8479ca	-0.06468542
218	0xbdefcfac	-0.11709532
219	0xbe41c26d	-0.18921824
220	0xbe803704	-0.25041974
221	0xbe4f82bb	-0.20264713
222	0xbeba0720	-0.3633356
223	0xbe69d9ce	-0.22836992
224	0xbec328c3	-0.38117036
225	0xbe0142b5	-0.12623103
226	0xbe079912	-0.13241985
227	0xbe9322d6	-0.28737515
228	0xbdd34c11	-0.10317243
229	0xbe9a2105	-0.30103317
230	0xbea9ed86	-0.33189029
231	0xbe954180	-0.29151535
232	0x391bd48e	0.00014861135
233	0x3dce506a	0.100739315
234	0xbe30ef8a	-0.17278877
235	0xbd83770c	-0.06419191
236	0x3cb3b8d3	0.021938717
237	0xbe1d220c	-0.15345019
238	0xbe27a6ab	-0.16372173
239	0xbe7edeaa	-0.24889627
240	0xbda905c6	-0.08253054
241	0x3bb53c04	0.005530836
242	0xbde105d2	-0.10987438
243	0xbeb284b9	-0.34866884
244	0xbe81fc05	-0.25387588
245	0xbe2a644d	-0.16639824
246	0xbe06d35a	-0.13166562
247	0xbeadc30e	-0.33937877
248	0x3ba1fa5a	0.0049431743
249	0xbcb4dc74	-0.022077776
250	0xbc50b451	-0.012738303
251	0x3d3c27aa	0.045936264
252	0xbe69088c	-0.22757167
253	0x3dfbea74	0.12300578
254	0xbe14d7a7	-0.1453539
255	0xbe79c3ae	-0.24391052
