examples/mujoco_Go1/nn_params/Go1Getup/hidden_1_bias.npy (npy, 1152 bytes, 1 tensors)

array f4 [256]
00000000: e240 253d cb17 8e3b d9c3 0bbe d5bf 00be
00000010: ec3c 05be 24b0 4bbd 390d f03a 1ed8 94bc
00000020: 6977 25bc 9e4a 55ba a3d1 16be c361 09be
00000030: 4dc8 8b3b 5a75 8fbd bd9c 073c fde7 c8bc
00000040: 58db eb3c cb6e 87bd 3210 26be f0f4 cabd
00000050: f665 41be 9074 553d 7cc7 b8bc 8779 1bbe
00000060: fbb0 a6bd f930 403d ca2e 48bd 4232 6ebd
00000070: 9207 2fbc 5c6b a23d b0b4 19bd 7b77 09be
00000080: 626e 49bd 630a 76bd dc57 b2bd bad2 f1bd
00000090: cf57 02be 5854 d2bc 1fa4 423d d10b d0bd
000000a0: 33ab c23d 3836 c4bc 644c 8d3c 0677 23bd
000000b0: 5623 b4ba 9f65 65bd a181 2abe a151 e9bd
000000c0: 77d4 92bd 36a0 61bd 42b6 babc 0413 09be
000000d0: fec7 85bd b96b c8bd 311a 8fbc 7b52 8fbd
000000e0: bc0e 8fbc f671 9e3c b845 02bd 0af1 94bd
000000f0: b4c8 2dbd ed75 9dbd 22e0 503d 36db 42be
00000100: b5e7 30bd 9705 6abd 36de 2cbe 5173 e3bd
00000110: 6a6b 62bd b0e2 81bd cbf9 dbbd 6d1a 59bd
00000120: 9365 9abc 0905 2cbd 4b70 6bbd c43f 35bc
00000130: a067 90bd 0f6c 7dbd 7aa5 92bc 0af3 e4bd
00000140: e6b9 afbd 4dac 02be cfb8 c6bd 446d d53d
00000150: 0f68 5cbc 5c94 e3bd 51f7 20be 8372 b1bc
00000160: dec9 69be d6f7 fbbd d4fe b0bd f024 9abd
00000170: e5d8 9bbb 369d f0bd f3fc 82be a464 f1bd
00000180: 1eda a0bd 78a2 913c 33f0 71bd 7f89 12be
00000190: 059b 3d3d c635 04be 5441 f2bc 4e1e 39be
000001a0: ed50 723c c377 0bbe 84b6 fa3b a8a0 69bd
000001b0: ffd6 ed3c a257 793d b886 93bd 677c e6bd
000001c0: ace2 1dbe 6d8b d3bd df8c b0bd 2230 c8bd
000001d0: 7dfa 4ebb 14e6 f0bd 9fd1 7cbd cd2a 7e3d
000001e0: 7572 56bd d695 97bd 2d69 e2bd 5ca2 00bb
000001f0: 49a9 28be 4e0c c6bd 11cf fabd 0b0f 98bd
00000200: 05d9 433d a9a9 cbbd ecc3 8e3c 0628 3cbd
00000210: 59b8 b4bb b5fe 12bd 8bf5 c1bc f8e9 e7bc
00000220: 7683 5cbe a1ea bebd 6839 35bc b7ad 10be
00000230: ee83 02be fd9d 15bd b54f 96bd ac01 2bbd
00000240: d806 edbd e39a 87bd b46e a1bd cf5d 52bc
00000250: 749d d8bd 8463 363c 20ef 48bd 93f7 3abd
00000260: 1ffa 1d3d 09a6 28bd 049c 69bd f6fc f23c
00000270: fe56 b9bd d03f b6bd c9ee 5dbd cb77 c1bd
00000280: 826e d03b c813 99bd fc45 1ebc 5950 febd
00000290: 058c dbbd 8029 8236 709a 59bd 0c4d 47be
000002a0: 95b6 29bd d075 89be 0edc 8abd 63e8 863d
000002b0: 9eeb 4dbc b601 6bbd 7e35 6fbd 9d0f a9bd
000002c0: 0106 82bd 533f a4bd 9baf cbbd ddae b7bd
000002d0: 0878 b2bd 4549 e2bb 5670 98bd 6842 a3bd
000002e0: 2b5c bdbb 176a 14be 80e3 d5bc e473 f23b
000002f0: 7d39 c0bd 444f 14bd aea2 bfbc 5fea 023d
00000300: 12ca 29bd 4f44 fabd a8af 27bd 1688 7dbd
00000310: c593 52bd 1676 82bd d845 d5bd e443 1ebe
00000320: 5e8e 453d 4a5d afbd 4252 0abe 28e1 d1bd
00000330: 2727 1a3d e446 f139 77cc 303c 2f43 0dbe
00000340: 621f eebc a077 9ebd 740d bb3c 0d0d debd
00000350: ed1a adbd 5572 143a 6da7 77bd 435f 0e3b
00000360: 9acd 10be 2c26 dcbc 9232 b9bc 21f9 1ebe
00000370: 89a0 233c e0b4 01bd b7b1 1ebe c988 01be
00000380: 4723 8ebd 5356 5fbd ae84 4bbe bd66 dcbb
00000390: 3169 f5bc 4aa2 d7bd c719 27bd cd5c 47be
000003a0: e99b 85bd 6fb7 b4bd 681d 67be 355d 37bc
000003b0: 6db3 efbd 25a7 f4bd dda4 8fbd b911 03bd
000003c0: e9e5 c6bc e51a 1b3c 871e 3abd baff 03be
000003d0: 6d62 de3c 78d5 e13c f630 243c 9b7d 39bd
000003e0: af95 11be fbd1 e2bd e656 aabd 0bec 763c
000003f0: 4869 9cbd 89d2 acbd bb63 edbd 396a 72be
0.04034508 0.0043363324 -0.13648929 -0.12573178 -0.13011521 -0.049728528 0.0018314488 -0.018169459
-0.01009927 -0.0008136424 -0.14728408 -0.134162 0.004265821 -0.07004805 0.008277115 -0.024524683
0.028791115 -0.06612929 -0.16217116 -0.09909999 -0.18886551 0.052113116 -0.022556059 -0.15183078
-0.08139225 0.046921704 -0.048872747 -0.0581534 -0.010682957 0.079306334 -0.037525833 -0.13424484
-0.049177535 -0.0600685 -0.08708164 -0.11807771 -0.12728809 -0.025674984 0.0475198 -0.10158504
0.0950531 -0.023951635 0.01724834 -0.03990843 -0.0013743441 -0.056005117 -0.16651012 -0.113925226
-0.07169431 -0.05508443 -0.022791985 -0.1338616 -0.06532286 -0.097861715 -0.017468544 -0.06998154
-0.01746308 0.01934145 -0.03180477 -0.07272537 -0.042427734 -0.07688508 0.050995 -0.19028935
-0.043189723 -0.057134237 -0.16881642 -0.11105979 -0.05527822 -0.06342065 -0.107410036 -0.053003717
-0.018847262 -0.04199699 -0.057480138 -0.011062566 -0.07051015 -0.06187063 -0.017901171 -0.111791685
-0.08580379 -0.1276104 -0.09703218 0.104212314 -0.013452544 -0.11112282 -0.15719344 -0.021661049
-0.22830912 -0.1230313 -0.086423546 -0.075265765 -0.0047560805 -0.117487356 -0.2558361 -0.11786774
-0.078541026 0.017777666 -0.059066962 -0.14310263 0.046290416 -0.12911138 -0.029572167 -0.18077967
0.014789802 -0.13619904 0.007651152 -0.05703798 0.029033182 0.06087459 -0.0720343 -0.112541966
-0.154185 -0.10329328 -0.08620619 -0.097748056 -0.0031582408 -0.11762634 -0.061723348 0.062052537
-0.05235525 -0.07401626 -0.11055217 -0.0019628024 -0.16470827 -0.09670316 -0.12246526 -0.07424744
0.047814388 -0.099444695 0.017427407 -0.045936607 -0.00551514 -0.03588744 -0.023676654 -0.028309807
-0.21534523 -0.09322096 -0.01106105 -0.14128767 -0.1274564 -0.036527622 -0.07339422 -0.04174964
-0.11573571 -0.06621339 -0.07882443 -0.0128397485 -0.10576907 0.011132125 -0.049056172 -0.04564626
0.038568612 -0.04117397 -0.057033554 0.029661637 -0.090497956 -0.0889889 -0.0541828 -0.09446677
0.00636083 -0.07474476 -0.00966024 -0.12417669 -0.10720066 3.879133e-06 -0.0531258 -0.19462985
-0.04143389 -0.26847696 -0.06780253 0.06587293 -0.012568383 -0.05737468 -0.058400624 -0.08254931
-0.063488014 -0.08019891 -0.099456035 -0.089688994 -0.087143004 -0.006905707 -0.074433014 -0.0797165
-0.0057788095 -0.14493595 -0.026109457 0.007399069 -0.09385965 -0.036208406 -0.023393001 0.031961795
-0.041452475 -0.1222006 -0.040939003 -0.06189736 -0.051410455 -0.06370179 -0.10413712 -0.15455586
0.048231475 -0.08562715 -0.13507941 -0.10248023 0.037634995 0.0004601992 0.010790936 -0.1379516
-0.029067699 -0.077376604 0.022833563 -0.10842333 -0.08452401 0.0005662789 -0.060462404 0.002172426
-0.14140931 -0.02687367 -0.022607122 -0.15524723 0.009987005 -0.031666636 -0.1549748 -0.12649836
-0.06940322 -0.054525685 -0.19874832 -0.0067261145 -0.029957386 -0.10529001 -0.040796068 -0.19468994
-0.06523878 -0.0882405 -0.22569811 -0.011191656 -0.117041446 -0.11945943 -0.07013867 -0.031999324
-0.024279552 0.009466861 -0.04543927 -0.1289052 0.027146542 0.02756761 0.010021439 -0.045285802
-0.14217256 -0.11075207 -0.08317356 0.0150709255 -0.07637268 -0.08438594 -0.11591288 -0.23673333
