examples/mujoco_Go1/nn_params/Go1Getup/hidden_2_kernel.npy (npy, 131200 bytes, 1 tensors)

array f4 [256, 128]
0	0xbdb035f0	-0.08604038
1	0xbd59ce15	-0.05317505
2	0x3d6faaee	0.05851262
3	0x3cdbb1eb	0.026818236
4	0xbce208d9	-0.02759211
5	0x3daf32d7	0.08554619
6	0x3b5ec48f	0.003399167
7	0x3d961f03	0.07330134
8	0xbde7df3a	-0.11321874
9	0xbd5dfd11	-0.05419642
10	0xbddddb14	-0.108328015
11	0xbbb17e86	-0.005416694
12	0xbc35ca1d	-0.011095551
13	0xbce117e6	-0.027477216
14	0x3cdb928e	0.026803281
15	0x3c16dac3	0.00920743
16	0x3da7840d	0.081794836
17	0x3da35cb3	0.07976665
18	0xbd399fb4	-0.04531832
19	0xbaef5cac	-0.0018261871
20	0x3d6b1f64	0.057402983
21	0x3c928f4a	0.017890591
22	0x3e2901d5	0.16504605
23	0xbdeb7c9a	-0.11498375
24	0xbd54371e	-0.051810376
25	0xbe2a9df1	-0.16661812
26	0x3dbe103e	0.09280442
27	0x3add93d9	0.0016905024
28	0xbdbf92a7	-0.093541436
29	0x3d6d44ba	0.05792687
30	0xbdb9e3bb	-0.09076639
31	0x3d6bb988	0.057549983
32	0xbdb72eae	-0.0894445
33	0x3db35d9a	0.087580875
34	0xbd166e56	-0.03672632
35	0x3c1b7bd0	0.009489968
36	0x3d38b0f4	0.04509063
37	0x3c5df3b2	0.013546871
38	0xbcb25d63	-0.021773046
39	0x3e2ab9a3	0.16672377
40	0x3ddb3d12	0.107050076
41	0x3ccd1d74	0.025038458
42	0x3ddd4768	0.10804635
43	0xbe03b551	-0.12862135
44	0x3da530f0	0.08065975
45	0x3d785abb	0.060633402
46	0x3d3fc9b3	0.046823215
47	0x3dbb9a16	0.09160249
48	0xbdf1d53c	-0.11808249
49	0xbbe81794	-0.007082889
50	0x3d3f9e8f	0.046782073
51	0x3b19d3c1	0.0023472162
52	0x3e4142bf	0.18873118
53	0x3e013d55	0.12621053
54	0xbdeb2e50	-0.11483443
55	0xbcecb097	-0.028892798
56	0x3ddff2af	0.1093496
57	0x3d047968	0.032342345
58	0xbd555ef3	-0.052092504
59	0xbd8581d6	-0.06518905
60	0xbde866d9	-0.11347742
61	0x3d26a019	0.040680025
62	0xbd856fd6	-0.06515472
63	0xbdfc9f3a	-0.123350576
64	0xbda94fd8	-0.08267182
65	0xbd063492	-0.03276498
66	0xbdb304b1	-0.08741129
67	0xbdb0e572	-0.08637513
68	0xbe13b110	-0.14423013
69	0x3d1ec597	0.038762655
70	0x3d3944c9	0.045231614
71	0x3b7d8f49	0.003869014
72	0xbd6f4b79	-0.058421586
73	0x3ced89e0	0.028996408
74	0x3d6badaa	0.057538666
75	0x3c8c6194	0.017136373
76	0xb9d66c72	-0.0004089806
77	0x3e03afb6	0.12859997
78	0xbd22576e	-0.03963416
79	0xbe68cc09	-0.22734083
80	0xbd3d0e42	-0.046156175
81	0xbe54a176	-0.20764717
82	0x3cdda0a9	0.027054148
83	0xbb695ceb	-0.0035608362
84	0xbb4393d9	-0.0029842763
85	0xbd4c8028	-0.049926907
86	0x3d6e0db1	0.058118526
87	0x3dc0d0db	0.09414836
88	0x3d199e9b	0.037504774
89	0xbdd7d674	-0.105389506
90	0xbd1c5ca8	-0.0381743
91	0xbd1815de	-0.03713023
92	0xbe723a82	-0.23655131
93	0x3c5607c4	0.013063375
94	0x3d5c4791	0.05377919
95	0xbb6b8778	-0.00359389
96	0xbc01e91c	-0.007929113
97	0xbdd1c9f1	-0.102435954
98	0xbb124470	-0.0022318624
99	0x3d7260c6	0.05917432
100	0x3d4bf646	0.04979541
101	0x3d1ec354	0.0387605
102	0x3ce337c2	0.027736548
103	0xbdb8541c	-0.090004176
104	0x3ded9d2e	0.11602245
105	0xbd5e5d6c	-0.054288313
106	0x3da7766c	0.08176884
107	0xbd85a21f	-0.06525063
108	0xbdcf2f3e	-0.101164326
109	0xbe9592ec	-0.29213655
110	0x3d2e0700	0.042487144
111	0x3dcf376e	0.10117994
112	0x3d96f1b8	0.07370323
113	0x3d9f3542	0.0777383
114	0xbd523af8	-0.05132577
115	0xbc95c0c0	-0.018280387
116	0xbc9674ba	-0.018366206
117	0xbce1620b	-0.02751257
118	0xbc935662	-0.017985526
119	0xbdaa8892	-0.0832683
120	0x3dde608b	0.10858258
121	0xbe0328f4	-0.12808591
122	0x3e1316ea	0.1436421
123	0xbe06671e	-0.13125274
124	0xbdf423a0	-0.119208574
125	0x3dde3bda	0.108512595
126	0x3d98aca4	0.074548036
127	0x3cbe480c	0.023227714
128	0xbb761f3a	-0.0037555234
129	0x3be58af0	0.007005088
130	0xbd2f391c	-0.042779073
131	0x3e61e287	0.2205907
132	0x3df2408c	0.118287176
133	0x3ddf7b61	0.109122045
134	0xbd23d8f2	-0.040001817
135	0xbd19c7fb	-0.03754423
136	0x3e6022a0	0.21888208
137	0xbd8ed5a9	-0.06974346
138	0xbe10d944	-0.1414538
139	0xbd38c6a7	-0.045111325
140	0x3d5bc05b	0.05365024
141	0x3d82e1ac	0.063907
142	0xbb9e0236	-0.004822041
143	0xbcae779b	-0.021297267
144	0x3e17c11a	0.14819756
145	0xbd84fd34	-0.06493607
146	0x3e24eae8	0.16105235
147	0x3d8655ff	0.06559371
148	0x3bc51966	0.0060149906
149	0x3d078681	0.033087257
150	0xbd02283f	-0.031776663
151	0x3d8f3c89	0.06993968
152	0x3dcb7755	0.0993487
153	0x3d19fb4c	0.03759317
154	0x3d0ae8c3	0.033913385
155	0xbd07d4ef	-0.033162054
156	0x3dcb0b46	0.099142596
157	0x3d3142ed	0.043276716
158	0xbe067450	-0.13130307
159	0x3c85bbcf	0.016324906
160	0xbe3046bc	-0.17214483
161	0x3e189dd7	0.14903961
162	0x3e04e1b8	0.1297673
163	0x3c85b3e8	0.016321138
164	0xbd47a883	-0.04874469
165	0x3d90eea8	0.0707677
166	0x3d8f94ea	0.07010825
167	0x3dba72b8	0.09103912
168	0x3ccb2d09	0.024801748
169	0x3ddcbdfe	0.10778426
170	0x3c30fe8e	0.010802878
171	0xbc81d66c	-0.015849315
172	0xbda8fda7	-0.08251505
173	0x3e090d03	0.1338387
174	0xbc652686	-0.0139862355
175	0xbddd69e4	-0.10811213
176	0x3e1e5f08	0.15465939
177	0xbb3ed7a0	-0.0029120222
178	0xbc773199	-0.015087509
179	0x3d490f9b	0.04908715
180	0xbdac06ad	-0.08399711
181	0x3ba45416	0.0050149066
182	0x3cb89d44	0.022535928
183	0x3ded34a4	0.11582306
184	0xbc09f8ea	-0.008421162
185	0xbc6f5e5a	-0.0146098975
186	0x3c875c3a	0.01652347
187	0xbda2550a	-0.07926376
188	0xbcd7a013	-0.026321447
189	0xbd78287f	-0.060585495
190	0xbceb8a2b	-0.028752407
191	0x3d4c424b	0.04986791
192	0xbd4e2c36	-0.05033513
193	0x3d50eb21	0.051005486
194	0x3bf8a4c9	0.0075880033
195	0xbd1638bb	-0.036675196
196	0x3d072d5c	0.033002242
197	0x3d0f493c	0.03498195
198	0xbe127620	-0.14302874
199	0xbd576a5f	-0.052591678
200	0x3d764f58	0.06013426
201	0xbe032f03	-0.12810902
202	0xbd9f0aa5	-0.07765702
203	0x3cf1ef09	0.029532926
204	0xbcb7c53f	-0.022432921
205	0xbdda106a	-0.10647662
206	0xbb9488e1	-0.004532919
207	0x3e0ab2bb	0.13544743
208	0x3d2a3bb2	0.041560836
209	0xbc958d34	-0.018255807
210	0x3d969b9c	0.07353899
211	0x3d278a38	0.0409033
212	0xbe0ef1bf	-0.13959406
213	0x3c766654	0.015039045
214	0xbd9b3d26	-0.075800225
215	0xbc918fea	-0.017768819
216	0x3d7865ff	0.060644146
217	0xbb640c14	-0.0034797238
218	0xbabaed1c	-0.0014261338
219	0x3d97b1c7	0.07406955
220	0xbdbaa939	-0.09114308
221	0x3d39609a	0.045258142
222	0x3d901f7f	0.070372574
223	0x3a7d0012	0.00096511946
224	0xbd0e1e13	-0.03469665
225	0xbde8e2cf	-0.11371385
226	0x3ac7e58f	0.0015250909
227	0x3d0e3a19	0.034723375
228	0x3da93b67	0.08263283
229	0xbc23588b	-0.009969841
230	0xbd35e56b	-0.044408243
231	0xbc42dfda	-0.011894191
232	0x3cf2051f	0.029543458
233	0x3d88a2d2	0.066716805
234	0xbd95a64f	-0.073071115
235	0x3d9b92e3	0.07596376
236	0xbdba1667	-0.09086304
237	0xbcf85c5a	-0.030317474
238	0x3e36159e	0.17781684
239	0xbd283618	-0.041067213
240	0x3dbfc2de	0.0936334
241	0x3ca437ef	0.020046202
242	0xbe18c8aa	-0.14920297
243	0x3da3b03a	0.07992597
244	0xbc5b7227	-0.013393915
245	0x3d6105b3	0.054937076
246	0xbdb6bafc	-0.08922383
247	0x3d10c107	0.035340335
248	0x3dfeba77	0.12437909
249	0xbe32c458	-0.17457712
250	0xbd98c9fa	-0.07460399
251	0x3dcb9924	0.09941319
252	0x3e23147f	0.15925787
253	0x3d7f7261	0.06236494
254	0xbcdfbe36	-0.02731238
255	0x3c843c8d	0.016142154
