examples/mujoco_Go1/nn_params/Go1Getup/hidden_3_kernel.npy (npy, 12416 bytes, 1 tensors)

array f4 [128, 24]
000000 85 84 ae bb 23 cf 09 3e b3 d1 bb 3d 02 f1 61 bd
       -0.005325856 0.13457923 0.09170856 -0.055161484
000010 11 87 b9 bc 76 2a 17 3c 52 de ab 3c 7c 4e 90 3a
       -0.022647412 0.009226432 0.020980034 0.0011009718
000020 6f 36 ab 3d e6 e1 06 bd 19 a2 8e 3c 2a c9 75 bd
       0.08359992 -0.032930277 0.017411279 -0.060006298
000030 19 14 1a be 1e fb 3a 3d e9 ab 93 3d f4 28 1d be
       -0.15046729 0.04564964 0.07210524 -0.15347654
000040 cb 3b b3 bd c9 56 d7 bd 3f c0 c5 bd 05 45 e2 3c
       -0.08751639 -0.105146 -0.09655809 0.027620802
000050 a4 db ec 3c fb b6 b3 bd 7a 0e 36 bd 77 1e b6 3c
       0.028913327 -0.08775135 -0.0444474 0.022231324
000060 fc a5 c3 3c 1d 20 25 3d 7f e4 dd 3b b7 1e 52 bd
       0.023882858 0.04031383 0.0067716236 -0.051298823
000070 45 a9 e9 bc 7b 64 0e 3d aa 1f 8b ba 23 18 db 3d
       -0.028523097 0.034763794 -0.0010614295 0.10697963
000080 69 97 80 bd 34 30 d1 bc 2e de a8 3c 27 b1 7c bd
       -0.06278879 -0.02553568 0.020613756 -0.061692383
000090 dd 1e ab 3d 46 0c de bd 2f f5 07 be 6c 2a 2b bc
       0.08355496 -0.10842185 -0.13277124 -0.010447126
0000a0 87 db 24 bd 31 dd 78 bd f2 6c a1 3d f6 22 80 ba
       -0.04024842 -0.06075782 0.07882108 -0.0009776044
0000b0 34 32 7c b8 0f 9c 70 bc 49 c3 dc bd c5 ab 9e 3d
       -6.0128237e-05 -0.014685645 -0.10779435 0.07747606
0000c0 9f 46 e3 3b d4 a9 9b bd 26 46 39 3d 38 23 61 bd
       0.006935909 -0.076007515 0.045232914 -0.054965228
0000d0 0b 82 05 3e 14 a0 39 3c fa 33 b0 3d 5b 73 8a 3d
       0.13037889 0.0113296695 0.08603664 0.067602836
0000e0 79 f5 c0 3c c4 31 af bb b8 a4 83 bd dd 04 26 3d
       0.02355455 -0.0053465087 -0.06427902 0.04053198
0000f0 62 c7 3b 3d b1 2e 0a bd 9d 93 39 3c f0 59 b8 3a
       0.045844443 -0.033735935 0.011326698 0.0014064889
000100 1c 08 24 3d 31 4d 25 bc 96 86 a5 bd b5 cb ba bd
       0.040046796 -0.010089205 -0.08082311 -0.09120885
000110 ce a3 8d 3c ff 70 1a bd cb 50 40 bd a3 0d 97 3d
       0.017290022 -0.037705418 -0.04695205 0.07375648
000120 85 fb a5 3d e6 bb c5 3d bf 9e c6 bd 7c e2 9d bd
       0.08104614 0.096549794 -0.09698247 -0.07709214
000130 43 95 2d 3e bc a2 a7 3d 75 4c 05 3e 4c 81 23 3e
       0.1695147 0.08185336 0.13017447 0.15967292
000140 65 db e0 3d 9b d6 57 bc a5 24 ab 3d e8 da 0c be
       0.10979346 -0.0131737245 0.08356599 -0.13755381
000150 ab 5f 4b 3e 97 0a 8e 3d 97 8a b8 3d 64 e3 73 3e
       0.19860713 0.069356136 0.09010809 0.23817211
000160 98 0a e1 3d 12 90 82 3e 7c c8 54 3e 48 1a 97 bd
       0.10988349 0.25500542 0.20779604 -0.073780596
000170 50 c7 2a 3e be d5 89 3e 9f ec 3b 3e da 10 89 3e
       0.16677594 0.26920885 0.18351983 0.2677067
000180 0f a5 7a 3d 92 07 bc bc a4 48 8f 3d 29 e8 05 bd
       0.06119257 -0.022952829 0.06996277 -0.03269211
000190 2d fd f1 bd 32 87 46 3c 1d 4b 47 bd ae 19 a4 3d
       -0.118158676 0.012117194 -0.048655618 0.080127105
0001a0 75 cc e8 bc 80 ef e1 bd a4 a6 8c bb b3 b8 bf bc
       -0.028417805 -0.11032009 -0.004292326 -0.023403501
0001b0 61 2e bf bd 13 e4 0a 3d 60 96 83 3c 2f 2d f0 3c
       -0.09335018 0.033908915 0.016062915 0.02931842
0001c0 ac a8 05 bd de 59 d6 bd b1 91 c1 bd d5 5b 50 be
       -0.03263156 -0.104663596 -0.094516166 -0.20347531
0001d0 c2 70 d3 bd 5f 0f 02 be 42 d9 08 be 9c 16 70 3a
       -0.10324241 -0.12701176 -0.13364127 0.00091586425
0001e0 fd 61 37 bd 5c 50 99 bd 41 16 01 be 61 a0 c5 bc
       -0.044771183 -0.074860305 -0.12606145 -0.024124326
0001f0 73 87 3e be c0 bf 8c bc 65 59 9e 3c 96 24 10 bb
       -0.18606357 -0.017181277 0.019329736 -0.0021994463
000200 1f 3d a0 3c 83 ad df 3d 7c 30 88 bc 27 0b 73 bd
       0.019560395 0.109217666 -0.016624682 -0.059336808
000210 b4 95 91 bd 62 42 38 bd f9 62 ad bd 3e 7f 8e 3d
       -0.07108632 -0.044985183 -0.08466143 0.06957863
000220 5e 5d 17 3e c1 39 fa 3d 3d 27 5b bd 6b b2 a3 bc
       0.1478171 0.12218047 -0.053504217 -0.019982537
000230 ab dc 1f be ea 55 7e bd d1 db 25 3d c4 cb 11 bd
       -0.15611522 -0.062093653 0.040492836 -0.035594717
000240 0e 6c 90 3d c1 93 83 3d 75 e7 87 3d ab 94 45 bd
       0.0705186 0.06424666 0.06635944 -0.048237484
000250 d3 50 82 3d 98 98 8a 3d e1 e1 b0 bd 32 8a 8e bd
       0.06363072 0.06767386 -0.08636833 -0.069599524
000260 ad f9 60 3d 52 ca 6e 3b 4c 05 ab bc c3 b7 9a 3d
       0.05492561 0.003643651 -0.02087655 0.07554581
000270 fa 4c b8 bd 8a 4e 46 be 1a b1 79 bd 18 75 07 be
       -0.08999057 -0.19365898 -0.060959913 -0.13228261
000280 23 6d 0f be b2 72 07 be d1 b4 5c be 23 37 62 be
       -0.14006476 -0.13227347 -0.21553351 -0.22091345
000290 97 7c 1b be 0e 5e 6c be 87 a8 74 be 97 ad fa bd
       -0.15184246 -0.23082754 -0.23892413 -0.12240141
0002a0 82 00 c9 3d bf a4 bc 3d 63 43 98 bc f9 4f 53 3d
       0.0981455 0.0921111 -0.01858682 0.05158994
0002b0 af 66 05 bd 4d 8e 79 3d fb 5f e4 3d 60 00 9c bd
       -0.03256863 0.060926724 0.11151119 -0.07617259
0002c0 d9 08 8c bd 75 9f a7 bd 67 76 08 3d 59 c8 1a 3d
       -0.06837625 -0.08184711 0.033316042 0.037788723
0002d0 ee ca 93 bd 33 8e a6 bd d8 58 c5 3c ad 58 da bd
       -0.0721644 -0.08132591 0.024090216 -0.10661445
0002e0 c3 8e 36 bc aa 8c 4a bc 77 d6 ba bd fe 49 2b bd
       -0.0111424355 -0.0123626385 -0.09122937 -0.04181861
0002f0 87 e4 00 be 66 51 2a 3d e4 ec d9 bd 65 34 9e bd
       -0.12587176 0.041581534 -0.106408864 -0.07724837
000300 15 e6 89 3d f7 a4 bc 3b be 86 09 be a0 fc e3 3d
       0.06733338 0.00575697 -0.13430306 0.11132169
000310 8e 63 27 3e 82 5d bd bd 71 d6 19 3c e6 bf 09 bd
       0.16346571 -0.09246351 0.009389506 -0.033630274
000320 5d a5 d1 bc 0b 42 ea bd 4c de 88 3d 57 b0 93 3c
       -0.025591547 -0.11438378 0.06683025 0.018028421
000330 5b b0 26 3e 93 a0 3a bd 3f ec 0a 3e e4 54 6f 3e
       0.16278212 -0.04556329 0.13566683 0.23372227
000340 8c 83 d9 3d 03 29 3d 3e 9a 7c 07 3e f6 3d dd 3d
       0.10620794 0.18472676 0.13231125 0.10802834
000350 c6 05 3e 3e be 80 f4 3d 10 66 8e 3e 99 e5 81 3d
       0.1855689 0.11938618 0.27812243 0.063426204
000360 3c 95 be bb af 6a a8 3d 2e c2 c9 3a cb fb d0 3d
       -0.00581613 0.08223473 0.0015392953 0.10204276
000370 99 9e 75 3c 03 f8 89 3b 81 d3 2e bc b6 31 1a 3d
       0.014991426 0.0042104735 -0.010670544 0.037645064
000380 7b 9d 14 3d 94 a1 cf bd 36 34 ab bd fb 1d 58 3d
       0.036282998 -0.101382405 -0.08359568 0.052762967
000390 2a 4a 04 3d 04 4f 07 3e dd 2b 02 3e 64 c7 b6 3d
       0.03229729 0.13213736 0.12712045 0.089247495
0003a0 3b 53 37 bd bc b6 29 3d 33 60 1a 3d c9 ad 19 3d
       -0.04475711 0.041434035 0.0376894 0.03751925
0003b0 3e 8e 86 3d ac e5 67 bd 0f ec b5 3b 92 61 02 3d
       0.06570099 -0.056615517 0.005551822 0.03183133
0003c0 51 3c 79 3b ce 14 94 3d 7a a6 3f 3d 47 b9 64 3c
       0.0038030336 0.07230531 0.046789624 0.013960189
0003d0 8e 05 51 3d 7b db 22 3d 8a e4 68 bd ff f9 1d bd
       0.051030688 0.039760094 -0.056858577 -0.038568493
0003e0 09 82 27 3e bf 02 00 bd 79 f6 a2 3d 56 bb 20 bd
       0.16358198 -0.03125262 0.07957167 -0.039241157
0003f0 39 ad b1 3d 0b af 42 3d b6 0f fd 3d 89 f8 76 bd
       0.08675618 0.047530215 0.12356512 -0.060295615
