examples/mujoco_Go1/nn_params/Go1Getup/hidden_0_kernel.npy (npy, 86144 bytes, 1 tensors)

array f4 [42, 512]
000000 ec 62 4c be c2 18 0f be 08 60 0d 3e 70 d7 22 3e
       -0.1995961 -0.13974288 0.13806164 0.15902495
000010 6f 85 5f 3e a3 9c ce 3d d8 c1 09 be 1a 71 15 be
       0.21828245 0.1008847 -0.13452852 -0.14593926
000020 f9 aa f2 3d da c1 b0 3d 49 9f 82 3d d1 20 6c be
       0.11849017 0.08630724 0.063780375 -0.23059393
000030 a4 2a d0 3d 1f 8a 44 3d 00 c3 25 3e bc de cc bd
       0.10164383 0.047983285 0.16187668 -0.10003421
000040 da 7e 06 3e 95 8a 86 bd 4d 7e 03 3e 6b 22 5b 3e
       0.13134328 -0.06569401 0.12841149 0.21399848
000050 2a 69 a3 3e ab cd 96 3d 38 05 3e 3e 4f d7 8a 3e
       0.3191617 0.07363447 0.18556678 0.27117392
000060 c0 4f 61 be 99 d3 10 3d 26 da bf 3d 74 bf 3b 3d
       -0.22003078 0.035358045 0.093677804 0.04583688
000070 cb 89 e1 bd f8 cf 2f 3e 2d 44 c6 bd c2 98 2e be
       -0.1101261 0.17169178 -0.09680972 -0.1705046
000080 35 24 ea bd 67 98 2c be 26 5f 73 be 05 bc 8f 3e
       -0.11432687 -0.16855012 -0.23766765 0.28073135
000090 c8 ad 57 3e 70 cc f2 3d 5d d1 d6 3c df cb 04 be
       0.21062386 0.118553996 0.026222879 -0.12968396
0000a0 52 df 54 be dd 2f b3 3d 88 e3 19 be 00 1f dc 3d
       -0.20788315 0.087493636 -0.15028203 0.107481
0000b0 b7 36 f3 3d 9a 27 1b be 07 04 1e 3a c3 75 1d 3c
       0.118756704 -0.15151826 0.0006027822 0.009610596
0000c0 26 18 77 bc 50 b5 fe 3d c8 0e f5 3d fd 9b 66 3d
       -0.015081441 0.12436926 0.1196571 0.056301106
0000d0 1a 8b 8b 3e ec 1b 9e 3d 35 89 1e 3e de e7 7b be
       0.27254564 0.077201694 0.15482028 -0.24600169
0000e0 18 e0 08 3e 07 d7 ca bc 36 c8 f9 bc 6f e5 3a 3e
       0.13366735 -0.024760736 -0.030490976 0.18251584
0000f0 c3 e6 42 be c6 e9 30 3e b2 3c 00 be 7f 5c f1 bd
       -0.19033341 0.17276677 -0.12523153 -0.1178522
000100 08 ee 86 3d 33 cb f8 3c 94 d8 10 3d d5 ab eb 3d
       0.065883696 0.03037033 0.035362795 0.11507384
000110 33 a0 c1 bd 9a 3b 14 be 6e 7d 16 3c da 9d 05 be
       -0.09454384 -0.14475861 0.009185178 -0.13048497
000120 23 0c 41 3e f8 df 61 be 3d 51 ad 3d 69 59 8e 3d
       0.18852286 -0.22058094 0.084627606 0.069506474
000130 a7 11 0d be 6d a9 2c 3d e9 6d 7e bd b0 f2 dd bd
       -0.13776265 0.042153765 -0.062116537 -0.108373046
000140 4b 0a c1 be 36 4d 31 bd 68 9d 2f 3d 80 a2 65 3e
       -0.37703165 -0.043286525 0.042874724 0.2242527
000150 71 26 d8 bc 63 b5 44 be 01 a4 89 3e f0 6b c9 3d
       -0.026385518 -0.19209819 0.26882938 0.098350406
000160 6f 11 f6 bb d0 fc 8b 3e e9 75 21 be 98 86 8a 3e
       -0.0075094025 0.27341318 -0.15767635 0.27055812
000170 cd 9a 6f 3e 77 93 43 bc 83 0a 65 bd 08 c8 55 3d
       0.23398896 -0.011937014 -0.055918228 0.052192718
000180 40 29 c9 bc 00 70 da 3d 66 0c 07 3d 93 f8 8e bd
       -0.024555802 0.106658936 0.03297081 -0.069810055
000190 df 3e 39 bd b7 13 b2 3d 05 ba db bd ce 5b a3 bd
       -0.045225974 0.086951666 -0.1072884 -0.07976495
0001a0 ca 25 9c 3d 1f 19 a4 be c8 d7 7f 3d 90 6d 37 be
       0.07624395 -0.32050416 0.062461644 -0.17912889
0001b0 8c b3 9a 3e 32 78 52 3e c9 e8 8b 3e e9 6c 08 bd
       0.30215108 0.20553663 0.27326038 -0.03330699
0001c0 58 53 05 3e 09 a8 b2 3a cd 6f 15 bd f8 22 83 3e
       0.13020074 0.0013630401 -0.036483575 0.25612617
0001d0 35 4b f1 bd 31 89 53 3e 0f a5 38 3e 46 c3 79 3e
       -0.11781923 0.20657803 0.18031715 0.24390897
0001e0 4b 32 07 3e f1 e6 da 3c d1 d7 28 3d 98 30 00 3e
       0.13202779 0.02672145 0.041221444 0.12518537
0001f0 c2 a1 dd 3d 57 3f c0 3d fb 61 34 3e 41 82 18 3e
       0.108218685 0.09387081 0.17615502 0.14893438
000200 69 18 86 3e 8c c9 a8 bd e2 29 0e be 19 13 0f 3e
       0.26190498 -0.08241567 -0.13883165 0.13972129
000210 34 93 90 3d 61 c4 ba bc e8 d9 1f 3e 23 7d 28 3e
       0.07059327 -0.022798719 0.15610468 0.16453986
000220 d1 9c 06 3d eb 31 95 3e ae 33 95 3d c9 9b 8c bd
       0.032864396 0.29139647 0.07285248 -0.06865651
000230 fe 35 f8 3d 59 6c 38 bd 21 02 f1 3d 95 59 28 be
       0.12119673 -0.045025203 0.11767984 -0.16440423
000240 25 0e ab 3d 36 d2 91 bd b4 04 1f be 9c 73 b9 bd
       0.08352307 -0.07120173 -0.15529138 -0.09055254
000250 a2 79 71 3d 66 1a 08 be 7c 3d 4f be 44 a3 5c 3e
       0.05895389 -0.1329132 -0.20238298 0.21546656
000260 9d 92 46 bd d8 4f 4a be cd 00 81 3e 38 a5 ad 3d
       -0.048479665 -0.1975702 0.25195923 0.084787786
000270 2d 46 9a 3e e6 62 42 3e 5d 92 c6 bd fe 0c 92 be
       0.30131665 0.1898304 -0.09695885 -0.28525537
000280 df 7a 2d be cc 0b 6b 3e a1 4a 6a bd 07 48 ff 3d
       -0.16941403 0.22953719 -0.057200078 0.1246491
000290 13 a1 4c 3e 64 73 60 be 49 59 53 3e 3c 20 c0 bd
       0.1998332 -0.21919018 0.20639528 -0.09381148
0002a0 74 d9 90 3d 9d 13 7b bd 39 d1 5c bd e9 36 21 be
       0.07072726 -0.061298 -0.053910468 -0.15743603
0002b0 51 29 25 be 77 b2 25 be 22 60 b3 3c 2c d9 20 3e
       -0.16129042 -0.1618136 0.021896426 0.15707844
0002c0 26 9b 58 be 70 a0 c7 3d 8c d9 72 3e 8e a1 85 bd
       -0.21152934 0.09747398 0.237158 -0.06524955
0002d0 ba 43 61 be 0a 8a 52 3d ff 8d a7 3d fa e8 e9 bd
       -0.21998492 0.051401176 0.081813805 -0.1142139
0002e0 1a fb 6e be 60 3c 41 be 59 df 07 3c 2a 00 13 3d
       -0.23337975 -0.18870687 0.008292996 0.03588883
0002f0 6d b5 78 be da b9 12 bd d1 72 b7 3d 06 29 cd bd
       -0.24287958 -0.035821773 0.08957446 -0.1001759
000300 da 69 03 3e d8 9d 60 3e b3 fa 29 3d 01 c8 24 3e
       0.12833348 0.21935213 0.04149885 0.1609192
000310 60 a4 66 be ee fd fd bb ab e1 17 3e c7 9c 54 3e
       -0.22523642 -0.007751218 0.14832179 0.20762931
000320 59 62 17 bd 7a 12 14 be 12 4f 1b 3c ec 87 46 be
       -0.036959026 -0.14460173 0.009479301 -0.19387788
000330 a4 6e b1 3e 10 a6 45 3e 53 76 29 be 48 0e 40 3e
       0.34654725 0.19301629 -0.16549043 0.18755448
000340 ba df 3e 3e de e7 51 bd 1d 1a fd 39 7e 9b 19 be
       0.18640032 -0.051246516 0.00048275376 -0.15000722
000350 17 6d c9 3a 69 ed 75 be be 58 98 3d 35 9f 5f be
       0.0015367594 -0.24016346 0.07438801 -0.21838076
000360 ea 36 5c be 7a df 5d be be 22 ef bd 1d a4 39 be
       -0.21505323 -0.21667281 -0.116765484 -0.1812901
000370 81 8f bf bd d8 ba da 3c 2c e0 4b 3e e2 30 b9 3d
       -0.09353543 0.026700422 0.19909734 0.09042527
000380 2e 92 14 be f6 22 11 3e 79 90 23 be 37 0b 21 bc
       -0.14508888 0.14173493 -0.1597308 -0.009829334
000390 cf ff 84 3d c0 de 95 3e 29 fc d0 bd d9 9f 8e be
       0.06494104 0.29271507 -0.10204346 -0.2785633
0003a0 23 79 00 be 46 fc 3d 3d b8 e5 1f 3e e5 ef 2d be
       -0.1254621 0.046383165 0.15614974 -0.16986044
0003b0 e2 64 04 be 9d 32 b3 3b f1 97 51 bd 3f 3d 80 3d
       -0.12929109 0.00546868 -0.051170293 0.06261682
0003c0 12 27 f8 bc 9d c7 73 bd fc 9e 5a 3e 93 ce 4f 3e
       -0.030292068 -0.059516538 0.2134971 0.20293646
0003d0 77 8e 67 bd 1b a2 80 be 14 01 87 bd 5f a6 b1 bd
       -0.05653235 -0.25123677 -0.065920025 -0.08674311
0003e0 f5 92 00 be 0d 33 33 be 23 ef f2 3c 49 4d 28 be
       -0.1255606 -0.17499943 0.029655045 -0.16435732
0003f0 a1 f0 e3 3d b8 69 5a be 8f 26 60 3e 0f d8 ed bd
       0.11129881 -0.21329391 0.21889709 -0.116134755
