src/control/nn_params/Go1Handstand/hidden_2_kernel.npy (npy, 131200 bytes, 1 tensors)

array f4 [256, 128]
00000000: d309 02bd 6627 27be f567 c43d 5f9a a1bc
00000010: 71f1 1dbe d925 e23d 271c 593d 2539 debd
00000020: 8bd3 c93c 02f7 3e3d f555 b2bd 6832 1e3c
00000030: bd97 4b3d 1072 afbe 1107 9fbc bedd 2dbd
00000040: cc5b b03d c534 2cbc 3c03 183d 6f7d e53c
00000050: 827f bcbd c171 fa3d 7b6f d23c 1cb6 033d
00000060: 5514 c73c 071e d9bd 1d16 a4bd 85cf 53be
00000070: 38f0 00be d302 25be 542b 9c3d e866 bc3d
00000080: d28b 1d3e 496e a8bc 3073 46be ad91 603c
00000090: 63f6 d63d b9d0 743d 8923 b93c bae1 f5bd
000000a0: 64dd e9bb eb41 16be 37cc 9bbd c24a 81bd
000000b0: 9443 d83a 8aa8 2f3e 0162 593e f6f8 3d3d
000000c0: 327d 37be 28d1 c4bc 3176 1f3e 5c3b 253e
000000d0: c224 303c 5b22 db3c 944c 8d3c b52c 03be
000000e0: c4d3 0e3e 51fc 3fbd 7f78 94bd bb49 2ebe
000000f0: 7996 f2bd 25f2 7c3d 9aa1 8b3d 756c fe3c
00000100: d12f 973d e548 593d 0226 0cbe 6c48 693c
00000110: db55 633c db8e 333d 13df 853d 0f87 713d
00000120: 136d d1bd 7733 9a3d de51 6a3e a6c6 a1bd
00000130: d4e6 093d 00b5 fdbd ae43 68bd 9bb4 b7bc
00000140: ba73 323c 1a2a a3bd a0d7 39bd c39f 4ebc
00000150: 7448 d6bc b19d 94bc 3d3c da3c 2f5a a73c
00000160: 1e85 073c eb6c 01be 2533 8cbd e869 fa3d
00000170: 0655 ccbd fd89 bf3d f3e0 673e bd9f 21be
00000180: 785b fcbc d61c 96bd f3dc 22bc ca84 eebc
00000190: c838 f0bd 0bf8 853d c45b c03b b2e9 693d
000001a0: 4c96 05be 44a4 27be 7471 2fbe 67fb 1c3e
000001b0: 7e2b 7abe 6fb6 efbc fecd dbbd f03e f43d
000001c0: 26c1 183e 6fad f5bd 4265 c4bd 97f6 ac3c
000001d0: 6c98 41bd 01c5 d7bb 99fd 9bbd edda aabd
000001e0: 811c 81be 1c24 ffbd 67f4 b03d 4301 5a3e
000001f0: 63db 61bd 7ad5 203e dd4f cc3d ecab fabd
00000200: fe57 0dbe e2a2 03bd 9c00 d1be 2280 4cbc
00000210: d583 1cba 9145 e13d d947 e1bd 2bff 5ebd
00000220: cabe 33bd 170d 50be 0a1f 94bd aebf fcbd
00000230: 0561 a4bd 86ce c63c 702d 253d d2ab 1cbe
00000240: 4ddc a6bc 4aad 4ebd 65b1 1abe 2571 7cbd
00000250: 6ee0 d43d 6df1 e43d c4f1 193e 4c59 a83d
00000260: 3c24 e03d 17bc 693e f7a0 eb3c bb70 e9bd
00000270: 4f22 57bc df96 06be 2a50 9c3d bb9a 5fbe
00000280: 60b5 4bbe cd2e 3f3d 6821 37bd 85c9 853d
00000290: 7410 86be 3fd0 093d 825f d13c 8ed7 963d
000002a0: 07f6 cb3d 34fa 1c3e 5902 a4bd 6797 693d
000002b0: 3b17 46bd a88b 84bd eb97 bbbd 0f3b 2bba
000002c0: bc74 023e 55c5 f4bd f646 9f3c f10c bc3d
000002d0: a6ea 14bd 0d18 153e e2fc ac3d 603e b23d
000002e0: ca8d f63c 3173 8ebd b579 56be bec1 14be
000002f0: f02d 49bd a652 bc3d a162 8a3d 41da 15bc
00000300: 8ef0 37bd 9282 5d3d 816c 01bd fa78 35bd
00000310: dbea fc3b 8081 983d a386 df3b 588c 5cbc
00000320: 1228 1f3c 3db8 24bc 0da4 f73d 7b7e 433d
00000330: 124f 00be 639f 1cbe b162 c23d 7f76 f63b
00000340: 58e7 183e 14dd 4dbe 5c60 0d3e e2b2 d2bc
00000350: 5614 e5bc a66a 9f3d 1648 eabc 652e 0f3d
00000360: 9c47 57bc eb88 f73d 7e03 05be 60c0 0a3d
00000370: 2f40 023d 41ba 333e d600 9a3d 8cca 663e
00000380: 0627 313d b091 04be d9bc bf3b dab9 cf3d
00000390: e7de 31bd b74c 66bd bea0 f63d 94ca 2f3d
000003a0: 1121 013e 7620 773d 3f85 59bb cb6d afbd
000003b0: 39d9 31bc 1d04 293e 6a50 953d 1362 9fbe
000003c0: 2e8c 64be f512 e73c faff 503d dcc6 5c3e
000003d0: d785 453b 48b8 293d dc66 6d3d 0513 903d
000003e0: 14b5 093e f6c0 f6bd 083d 9fbe 884b d93d
000003f0: 6058 013e cb65 903d c327 33be 516e 723d
-0.03174765 -0.16323623 0.09590141 -0.01972693 -0.15424134 0.11042375 0.053005364 -0.10850743
0.024637004 0.046622284 -0.08707801 0.0096555725 0.049705256 -0.3426671 -0.01941255 -0.042447798
0.08611259 -0.010510628 0.03711246 0.028013913 -0.09204008 0.12228728 0.025687924 0.032156095
0.024301687 -0.106014304 -0.0801203 -0.20684631 -0.12591636 -0.16114359 0.07625452 0.09199315
0.15385368 -0.0205604 -0.19379878 0.013706607 0.10496213 0.059769366 0.022599952 -0.120059446
-0.0071369875 -0.14673583 -0.0760731 -0.06313087 0.0016499632 0.17154136 0.21228792 0.046380006
-0.17918852 -0.024025515 0.1557243 0.16135925 0.010750951 0.02674978 0.01724843 -0.12810023
0.1394797 -0.046871487 -0.07249545 -0.17020313 -0.11845107 0.061754365 0.068179324 0.031057576
0.07382167 0.053048033 -0.13686374 0.014238458 0.01387545 0.04383741 0.06536689 0.058966693
-0.102258824 0.075293474 0.22882792 -0.07899217 0.0336674 -0.12388039 -0.05670517 -0.022424987
0.010891849 -0.079670146 -0.04537165 -0.012611332 -0.026157595 -0.0181416 0.026640052 0.020428745
0.008271484 -0.12639205 -0.068456925 0.12227231 -0.099771544 0.09352491 0.22644405 -0.15783592
-0.030805334 -0.07329719 -0.009940374 -0.029116053 -0.1172958 0.06541451 0.0058703143 0.057107635
-0.13045615 -0.16371256 -0.17133123 0.15330277 -0.24430653 -0.029261796 -0.10732649 0.11926067
0.1491743 -0.119959705 -0.09589626 0.021113677 -0.0472645 -0.006584764 -0.07616729 -0.08342538
-0.2521706 -0.12458059 0.08640366 0.21289544 -0.055140864 0.15706435 0.0997617 -0.12239823
-0.13803098 -0.03213776 -0.40820777 -0.012481721 -0.0005970572 0.10999597 -0.11000032 -0.054442566
-0.043883123 -0.20317493 -0.07232483 -0.123412475 -0.080263175 0.0242684 0.040326536 -0.15299919
-0.02036872 -0.05045823 -0.15106733 -0.06163134 0.10394369 0.11178861 0.15033633 0.08220157
0.10944411 0.22825657 0.028763277 -0.11398455 -0.013130738 -0.1314349 0.076324776 -0.21836369
-0.19893408 0.046675492 -0.044709593 0.065325774 -0.26184428 0.033645865 0.025558237 0.073653325
0.09959035 0.1532982 -0.0800826 0.057029154 -0.048361998 -0.0647195 -0.091598354 -0.0006531933
0.12739843 -0.119517006 0.019443016 0.09182156 -0.03635659 0.14559956 0.08446671 0.08703303
0.030096907 -0.06955565 -0.20944865 -0.14527032 -0.049116075 0.091954514 0.06757093 -0.009146274
-0.044907145 0.0540796 -0.031597618 -0.044304825 0.0077184266 0.07446575 0.00682147 -0.013461195
0.009714143 -0.010053691 0.12091837 0.047728043 -0.12530163 -0.15295176 0.0949148 0.00752145
0.14932 -0.20103866 0.1380629 -0.025720064 -0.027963798 0.077840135 -0.028598826 0.034956355
-0.013139632 0.12086662 -0.12989613 0.03387487 0.03179949 0.17551519 0.07519691 0.22538203
0.043250106 -0.129462 0.00585137 0.1014287 -0.043425467 -0.056225505 0.12042378 0.042917803
0.1261027 0.06033369 -0.0033190993 -0.08565863 -0.010855013 0.16505475 0.072907284 -0.31129512
-0.223191 0.028207282 0.05102537 0.21560234 0.003013959 0.04143551 0.057959422 0.07034878
0.13447982 -0.12048523 -0.3110125 0.106101096 0.12631369 0.070506655 -0.17495637 0.059187237
