src/control/nn_params/Go1Handstand/hidden_1_kernel.npy (npy, 524416 bytes, 1 tensors)

array f4 [512, 256]
-0.09757216 -0.09245624 -0.11742227 -0.025892565 -0.11147487 -0.02066211 -0.050698858 -0.14294273
0.0885685 -0.0067625195 0.14537251 0.005923362 -0.042688638 -0.17178841 0.002886545 -0.441891
-0.004480926 -0.037990045 -0.034738116 -0.18946865 -0.27120245 -0.13378449 -0.028458253 0.08189499
0.018242992 0.20986554 -0.05622377 0.11125483 -0.1527591 -0.088972785 -0.021061275 0.0016565134
-0.06874932 0.028844476 0.015857715 -0.11488401 -0.13043314 0.0488217 -0.020459328 0.2120214
-0.046446882 -0.18831159 -0.013250491 0.07954843 -0.10476779 0.09913929 0.019065611 -0.12925193
-0.23748066 -0.18785821 0.009000736 0.057077885 -0.06726902 -0.091022916 -0.107976764 -0.018305495
0.108624846 -0.06505441 0.12648103 -0.04971523 0.00400397 -0.121787384 -0.2254905 -0.08829126
-0.215536 0.002977438 -0.044324405 -0.09808957 -0.0721465 -0.08266738 0.00080460915 -0.016845003
-0.016177261 0.0931022 -0.10348771 -0.14488643 -0.072082736 -0.13281015 0.0063040997 -0.041114457
-0.020519089 -0.0891916 -0.09717217 -0.05060197 0.06632396 -0.08985005 -0.1939329 -0.10309136
0.23953667 0.03501005 -0.17647235 -0.059583366 -0.07091462 0.05012182 -0.10560079 -0.0116384765
-0.10780978 -0.06372196 -0.22118743 -0.090936676 0.023863712 0.12790962 -0.0075818994 -0.07343647
-0.028278293 -0.061336033 -0.17051089 0.014588734 0.022121038 -0.116070054 0.19166946 -0.062670864
0.02275493 -0.02492688 -0.08620026 -0.044170972 -0.05470625 0.1851725 -0.09501077 -0.038900618
-0.35141653 0.10172139 -0.09637159 -0.058357075 -0.02257389 -0.024012798 0.13397595 -0.1389517
-0.027148746 0.0937564 0.17422721 0.042096898 -0.03339598 -0.0572339 -0.005055631 0.13274275
-0.11421657 -0.12506513 0.019662943 -0.17264761 0.017908243 -0.09073266 -0.4063963 -0.036507748
-0.06261456 -0.024729455 -0.047685448 -0.12565185 -0.027004918 0.0036060247 -0.15867032 -0.18531883
0.01997334 -0.09875139 -0.034859672 0.009179072 -0.06683085 0.049164526 -0.12398905 -0.026106529
0.07148189 -0.11153166 0.1429464 0.11333586 -0.017827768 0.04719196 -0.10875342 -0.17957094
-0.09187995 0.10958203 -0.07965173 -0.09208839 0.17998579 -0.016054846 -0.12045631 -0.013635744
0.049969718 -0.09768436 0.109797664 0.008629865 -0.08370302 -0.0019970196 -0.01360112 -0.08969664
-0.092999615 -0.12114757 -0.113850534 -0.12438034 -0.12911445 0.16728985 -0.1863014 -0.36614797
-0.07709945 -0.18490478 -0.11639478 0.13725515 -0.10334888 -0.26279652 -0.14508034 0.083349764
-0.06964898 0.09679903 -0.06822924 -0.06683604 -0.017136833 0.053447302 -0.14333571 -0.17833737
0.07412821 -0.08203817 -0.08887948 -0.10324991 -0.01879574 -0.21724406 -0.1681039 -0.024594385
0.08869158 -0.06725578 -0.006065249 -0.087406196 0.18860714 -0.24219035 -0.058724787 -0.049595654
-0.12163719 -0.20225115 -0.14573292 0.12948385 0.00082670245 -0.082477674 0.1406725 -0.039112285
-0.08232987 -0.10891228 -0.029530598 0.040273484 -0.060364265 -0.28793392 -0.08830212 0.06126127
0.07437191 -0.17699341 -0.07546645 -0.11700464 0.12546867 -0.027073674 0.02302855 0.08504573
0.025040891 0.110601604 -0.12895004 -0.042758025 0.079159684 -0.0698785 -0.16424541 0.11755299
00000000: ead3 c7bd b259 bdbd 167b f0bd a51c d4bc
00000010: f04c e4bd 9643 a9bc 9ba9 4fbd 945f 12be
00000020: 6763 b53d 2098 ddbb 88dc 143e c318 c23b
00000030: 48da 2ebd 4de9 2fbe 302c 3d3b 8a3f e2be
00000040: bbd4 92bb 739b 1bbd 8e49 0ebd 1204 42be
00000050: 0cdb 8abe cdfe 08be 4821 e9bc 8fb8 a73d
00000060: 5472 953c fee6 563e e54a 66bd 93d9 e33d
00000070: e26c 1cbe 5d37 b6bd b288 acbc 5e1f d93a
00000080: 72cc 8cbd 404b ec3c 0ae8 813c 4f48 ebbd
00000090: 4490 05be 43f9 473d 529a a7bc 231c 593e
000000a0: 163f 3ebd c1d4 40be 9618 59bc 4aea a23d
000000b0: 7f90 d6bd 8a09 cb3d 7c2f 9c3c 9e5a 04be
000000c0: 212e 73be e75d 40be d377 133c 80ca 693d
000000d0: 57c4 89bd 396a babd ec22 ddbd 68f5 95bc
000000e0: b476 de3d 3f3b 85bd 3e84 013e 32a2 4bbd
000000f0: bc33 833b aa6b f9bd fbe6 66be 0cd2 b4bd
00000100: 78b5 5cbe 1f21 433b 828d 35bd 2fe3 c8bd
00000110: 8bc1 93bd 844d a9bd 68ec 523a 88fe 89bc
00000120: 2d86 84bc 5eac be3d 5df1 d3bd 1c5d 14be
00000130: 1da0 93bd 62ff 07be 9f92 ce3b a267 28bd
00000140: a617 a8bc 16aa b6bd 3402 c7bd 0344 4fbd
00000150: dbd4 873d 4e03 b8bd 5996 46be 9021 d3bd
00000160: 1a49 753e b366 0f3d 2bb5 34be b00d 74bd
00000170: af3b 91bd 8a4c 4d3d 3a45 d8bd 4faf 3ebc
00000180: 60cb dcbd a980 82bd f57e 62be 023d babd
00000190: d57d c33c bdfa 023e 9571 f8bb dc65 96bd
000001a0: e1a7 e7bc 7e3b 7bbd 689a 2ebe 9605 6f3c
000001b0: 2e37 b53c 23b6 edbd 0045 443e 9559 80bd
000001c0: 8c68 ba3c 7533 ccbc c389 b0bd 9fec 34bd
000001d0: a913 60bd dc9d 3d3e 0295 c2bd 4156 1fbd
000001e0: deec b3be 4e53 d03d 785e c5bd d407 6fbd
000001f0: e1ec b8bc 7db6 c4bc fe30 093e 5b49 0ebe
00000200: 0c67 debc 5b03 c03d 9e68 323e cc6d 2c3d
00000210: 39ca 08bd 186e 6abd b5a9 a5bb b7ed 073e
00000220: 61ea e9bd 1311 00be 2e14 a13c 89ca 30be
00000230: 4fb4 923c 0bd2 b9bd 2d13 d0be 2689 15bd
00000240: 103c 80bd 6d95 cabc d151 43bd e1aa 00be
00000250: 6b39 ddbc 0e53 6c3b 797a 22be 38c4 3dbe
00000260: 219f a33c 2b3e cabd 04c9 0ebd d263 163c
00000270: 9dde 88bd be60 493d f9ed fdbd 5cdd d5bc
00000280: 1965 923d b66a e4bd 8b60 123e a21c e83d
00000290: 8a0b 92bc 5b4c 413d 1dba debd 72e1 37be
000002a0: 8e2b bcbd 8b6c e03d 7220 a3bd d698 bcbd
000002b0: 324e 383e 7485 83bc ccb1 f6bd 7568 5fbc
000002c0: 0cad 4c3d bd0e c8bd 99dd e03d 4764 0d3c
000002d0: 7d6c abbd 6ee0 02bb 3bd7 5ebc dfb2 b7bd
000002e0: 9576 bebd 381c f8bd 782a e9bd 1fbb febd
000002f0: 9436 04be 084e 2b3e cbc5 3ebe bf77 bbbe
00000300: 51e6 9dbd ae57 3dbe 6360 eebd 9d8c 0c3e
00000310: 94a8 d3bd 448d 86be f18f 14be 48b3 aa3d
00000320: 20a4 8ebd 923e c63d c6bb 8bbd 55e1 88bd
00000330: 8b62 8cbc 8feb 5a3d 99c6 12be 129e 36be
00000340: 88d0 973d a103 a8bd 7206 b6bd b074 d3bd
00000350: 86f9 99bc 3a75 5ebe 6e23 2cbe 2a7a c9bc
00000360: eea3 b53d 66bd 89bd ffbe c6bb 0502 b3bd
00000370: 3b22 413e bf00 78be 6789 70bd d024 4bbd
00000380: eb1c f9bd ed1a 4fbe 033b 15be 6a97 043e
00000390: 10b7 583a 0eea a8bd 740c 103e 3434 20bd
000003a0: 909c a8bd 670d dfbd 27ea f1bc cff5 243d
000003b0: 8540 77bd 136c 93be bed7 b4bd 19ed 7a3d
000003c0: 4d50 983d c33d 35be 278e 9abd 21a0 efbd
000003d0: dc7a 003e 9cc9 ddbc 5fa6 bc3c 752c ae3d
000003e0: 8e22 cd3c 1883 e23d 7b0b 04be 0a23 2fbd
000003f0: 791e a23d 761c 8fbd f32f 28be 9fbf f03d
