src/control/nn_params/Go1Getup/hidden_0_bias.npy (npy, 2176 bytes, 1 tensors)

array f4 [512]
000000 dc 2d 0b bd 2a 2a 6b 3b 45 ab 80 bd 62 35 43 bd
       -0.03397928 0.0035883286 -0.06282667 -0.04765833
000010 13 61 a7 bd f3 b6 dd bd 63 36 f1 bd 45 39 9d 3d
       -0.08172812 -0.108259104 -0.117779516 0.07676939
000020 12 30 ac 3d d6 12 ec bd 97 47 04 be e3 28 f4 3c
       0.08407606 -0.1152703 -0.12917934 0.029804653
000030 91 bc 60 bd 19 37 df bd 85 0a 6e bd da 52 8b bc
       -0.05486733 -0.10899181 -0.0581155 -0.01700728
000040 48 7d 69 bc 75 07 bc bd b8 86 84 bd 14 10 fe bd
       -0.014251061 -0.0918111 -0.06471008 -0.124054104
000050 54 3e 98 bc 8d 03 be bd e7 9b 59 3e 37 2f 27 be
       -0.018584408 -0.09278021 0.21250878 -0.16326605
000060 ab 37 46 bd c9 7e 64 bd b8 f3 96 bd ec 6a ef b7
       -0.048392933 -0.055784974 -0.073707044 -2.854081e-05
000070 9e 80 17 be c0 47 e5 bc ab e8 9b bd 91 c0 e7 bd
       -0.14795157 -0.027988315 -0.07612737 -0.11316026
000080 ff e4 48 3c 20 48 bb bd 86 7f 28 3c 5e bd c2 bd
       0.012261628 -0.09144616 0.01028431 -0.09508775
000090 1d 29 3f 3d 56 00 20 be 0d 6a fe 3d 33 9e ab bd
       0.046670068 -0.15625128 0.12422571 -0.083797835
0000a0 77 28 f7 bd cb c3 16 3d 78 d7 78 bd e9 d9 71 3d
       -0.12068265 0.036807816 -0.060752362 0.059045706
0000b0 d8 fb 98 bd e6 43 37 be 8c c2 e3 3d 4c 0e 75 bc
       -0.074699104 -0.17896995 0.11121091 -0.014957022
0000c0 7e 78 d3 3d 76 a2 99 bd 61 f5 c6 3d 88 88 04 3e
       0.103257164 -0.0750169 0.09714771 0.12942708
0000d0 54 26 86 3d 27 32 81 3c ef 2a 1b bd 93 ed 28 3d
       0.06550279 0.015770985 -0.03788274 0.041242193
0000e0 47 5b f0 bc f6 e7 a6 3c 7f 80 b2 bc 9d 56 e3 bd
       -0.0293404 0.02037428 -0.021789787 -0.111005045
0000f0 25 62 23 bd 02 f4 6a bd 0e a2 82 bc b7 64 15 bd
       -0.03988852 -0.05736161 -0.015946414 -0.036473002
000100 20 bd 9d bd 9f ff 9b bd 03 41 bd bd f7 cd 06 3d
       -0.07702088 -0.07617115 -0.092409156 0.032911267
000110 48 68 a8 bc c7 9c 23 3e aa 63 9d bd 52 82 5d 3d
       -0.020557538 0.15977775 -0.07685025 0.05407936
000120 75 2c 57 3c 9d b2 c1 bd 4b e8 5b 3d 88 30 f2 bd
       0.013133158 -0.09457896 0.05368833 -0.11825663
000130 4f d5 a9 bd 2f 8a 81 3c b1 93 8e 3c b0 49 9d bd
       -0.082926385 0.015812961 0.01740441 -0.076800704
000140 f8 c2 57 bc 4b 6d db bb 9a 7e 00 be 19 97 3e bd
       -0.013169043 -0.0066963783 -0.12548295 -0.046530817
000150 2e c8 1d 3c 52 a8 f7 3d 20 b3 8a bd b3 7f a0 3d
       0.009630246 0.120926514 -0.06772447 0.07836857
000160 59 13 c0 3d 4e b3 b2 3d 77 f4 a2 bd 12 8a 46 3e
       0.0937869 0.08725606 -0.07956784 0.19388607
000170 e4 65 b7 3d be 5a fe 3c 1b cb b5 bd b3 42 a7 bd
       0.08954981 0.031049129 -0.0887663 -0.08167019
000180 70 db ea bd f2 c9 0b bd c7 be 9c 3c 80 21 c6 bd
       -0.11467636 -0.034128137 0.019133938 -0.09674358
000190 f7 51 dc bd 12 12 99 ba f2 d0 1b 3d cb 92 87 bd
       -0.10757821 -0.0011678359 0.038041063 -0.066197954
0001a0 49 f4 65 bd c0 07 92 bd 21 e1 bb bd b0 42 0d 3c
       -0.05614117 -0.071303844 -0.09173799 0.008621857
0001b0 24 a5 17 bd 18 73 43 3b e3 fe 01 be 02 3b 42 bc
       -0.037022725 0.002982324 -0.12694888 -0.011854889
0001c0 f4 6c ee bc 5f 15 10 be d8 a6 90 bd 22 81 16 be
       -0.029104687 -0.14070652 -0.07063073 -0.14697698
0001d0 6a 61 2a 3b a4 09 e6 3c fa fd 9f bd be 21 bc 3d
       0.0025998005 0.028080769 -0.07812114 0.09186123
0001e0 62 6c ca bd 3a be 36 bd bf e4 04 be e2 6f 3b 3c
       -0.09883954 -0.044615008 -0.12977885 0.011440249
0001f0 50 99 d2 bd ff c9 42 3d ab ca a7 bc 3b dc 18 be
       -0.10283148 0.04755592 -0.020482382 -0.14927761
000200 69 30 5b 3d cf 10 9f bd 32 d2 6a bd ad 47 33 be
       0.053512964 -0.07766878 -0.057329364 -0.17507811
000210 04 65 8e bd d5 7e f8 3c e9 20 62 3d 84 92 f4 bd
       -0.06952861 0.030333916 0.055207167 -0.11942008
000220 ce 53 c3 bc 1a 85 d1 bc dd 2a 17 3d e6 2e b4 bd
       -0.023843672 -0.025576163 0.036906112 -0.08798008
000230 62 5c 03 be 90 30 30 bd 74 72 c1 bd 88 f6 2f 3e
       -0.1282821 -0.043015063 -0.09445658 0.17183888
000240 e8 01 bc bd 17 ff 6e 3c 09 fb 0b bd e0 a7 a4 bd
       -0.09180051 0.014587185 -0.034174953 -0.08039832
000250 e3 ab 26 bd fe 23 d2 3c 76 64 7a 3d 9f 37 3a bd
       -0.040691268 0.025651928 0.061130963 -0.0454632
000260 b3 88 63 bd 51 ef 4f 3d 2d 4f 06 bc de 73 21 bd
       -0.05555029 0.05076534 -0.008197588 -0.03941714
000270 ae 7f 1a bc 18 f2 37 be 07 8c d9 bd 50 aa 5e be
       -0.009429855 -0.17963445 -0.10622411 -0.21744657
000280 82 9b 78 3d a0 01 c5 bd 95 6c b2 3b c1 bb e5 bd
       0.06069518 -0.096194506 0.005445073 -0.11217452
000290 dd 8f 07 3d 20 5e 04 bd ca ac 22 be 26 b7 0a 3e
       0.033096183 -0.032316327 -0.15886226 0.13546428
0002a0 58 33 e4 bd 23 71 14 be 48 a1 0b bd 58 85 09 bd
       -0.111426055 -0.14496283 -0.034089357 -0.033574432
0002b0 0b 82 73 3d fe b1 97 3d 55 c9 36 bd a1 ce 9b 3c
       0.05945019 0.07406996 -0.0446256 0.019019427
0002c0 78 1b c8 bd d2 00 6a bb d3 53 26 be ea e7 6a bc
       -0.09770864 -0.0035706055 -0.16242914 -0.014337519
0002d0 1c 4d 4c 3e df 4a cc 3d b0 a0 89 be 3a d2 7f 3d
       0.1995129 0.09975218 -0.26880407 0.062456347
0002e0 9e 60 b0 3c fa 8c bc bd 5a 0f e0 bc 98 3a bb bd
       0.021530446 -0.09206577 -0.02735107 -0.09142035
0002f0 8c fe 47 3c 02 b0 be bb 62 97 7c be 67 66 80 bd
       0.012206685 -0.0058193216 -0.24667123 -0.06269532
000300 3f 7e 93 bd 11 9a c2 3c b9 2b 5b 3d e1 0f 7c bc
       -0.07201814 0.023755105 0.053508494 -0.015384645
000310 cf fa 42 be d8 4e 45 bd 35 84 68 bc 20 bb 5e 3d
       -0.19040988 -0.048170894 -0.014191677 0.054377675
000320 38 36 ba 3c 66 72 c8 3d 7e 14 07 bd 99 5e 9a bb
       0.022730932 0.09787445 -0.032978527 -0.004710984
000330 fb f3 c1 3d 8d e4 53 bc 95 74 44 bd f4 7a 18 be
       0.09470364 -0.012932909 -0.047962744 -0.14890653
000340 db 82 10 bc d4 8c 15 be ac ef a5 3c 48 20 73 be
       -0.008820261 -0.14604503 0.020255886 -0.23742783
000350 b7 cc 3b bd 85 f8 1e bd 92 10 ce bc 30 42 91 bd
       -0.04584953 -0.038811225 -0.025154386 -0.070927024
000360 f5 8c 8c 3d 3f 69 27 bd 5b a4 d0 bd 66 01 8b bd
       0.06862823 -0.040871855 -0.10187598 -0.06787376
000370 c0 53 3b bd e2 f9 95 ba b2 28 54 be d3 13 c1 bd
       -0.045734167 -0.0011442269 -0.20718649 -0.09427609
000380 e2 7f 8c bd 29 1b 17 3e 54 da 71 bb b8 18 80 bd
       -0.06860329 0.14756455 -0.0036903815 -0.06254715
000390 51 70 3e bd 32 53 c1 bd 7d 38 e4 3b 57 1d 32 3d
       -0.046493832 -0.09439696 0.0069647417 0.043485012
0003a0 e2 65 df 3d 48 f7 ef bc 23 d8 b1 3d 0b 52 38 bd
       0.109081045 -0.029292718 0.08683803 -0.045000117
0003b0 de 88 27 be c6 10 24 bc d4 2c ba 3c 60 57 81 bd
       -0.16360804 -0.010013765 0.022726454 -0.063154936
0003c0 3d d3 95 3d 4c 84 0c bd 15 e1 9b bd 17 98 08 be
       0.07315681 -0.034305856 -0.0761129 -0.13339268
0003d0 42 d8 4c 3c be a1 db 3c c8 9b 12 be 6c a9 08 bd
       0.012502732 0.026810523 -0.14317238 -0.0333647
0003e0 75 ae d1 3d 1c 14 c1 b9 58 96 60 bd ef 43 8c bd
       0.10238353 -0.0003682681 -0.05483088 -0.06848895
0003f0 18 01 a7 b9 9a a4 6d 3c d3 75 c1 bc b0 67 23 bd
       -0.00031853537 0.014504576 -0.023615753 -0.039893806
