src/control/nn_params/Go1Getup/hidden_1_kernel.npy (npy, 524416 bytes, 1 tensors)

array f4 [512, 256]
000000 c4 a4 ae bd b9 12 93 bd e3 92 41 bb e6 91 0e 3d
       -0.0852752 -0.071813054 -0.0029537014 0.03480711
000010 48 db e2 bd 50 80 aa bd 9e 4b 07 be 4b e9 b6 bb
       -0.11076981 -0.08325255 -0.1321244 -0.00558201
000020 53 d8 c5 3d f1 f5 0c 3d 60 b3 63 3e 4c 83 3f 3c
       0.09660401 0.034414236 0.22236395 0.011689018
000030 71 b5 97 bb 02 9e c0 bd af cf 38 3c 4a 55 b5 bc
       -0.004629784 -0.094051376 0.011279984 -0.022135396
000040 b4 2a e0 bd 07 f0 42 bd cd 15 e0 3d 2d 87 83 bd
       -0.10945645 -0.04759219 0.10941658 -0.06422267
000050 c5 1b 9d bc 7a 8e 36 3d 5e c7 d7 3d 38 c3 c6 3d
       -0.01917828 0.04456947 0.10536073 0.09705204
000060 dc 17 7e bd 2d 30 9d 3d 2c f0 61 3b e5 1e ba 3d
       -0.062034473 0.076752044 0.003447543 0.09087924
000070 4f d3 a6 bd 55 b5 da bd 7c 9f 7e bd 5e 29 9a 3c
       -0.08145773 -0.106791176 -0.062163815 0.018818554
000080 7b 96 9b bd e2 b8 43 bc 04 08 77 bd 7e c0 2a be
       -0.07597061 -0.011945935 -0.06031038 -0.16674992
000090 85 11 7b 3c ce 6a da bd c6 0b 94 3d e7 18 f1 bc
       0.015324001 -0.106649026 0.07228808 -0.02943082
0000a0 4f e6 00 be a6 de 87 3d 37 ad 8f 3c b1 65 47 bb
       -0.12587856 0.06634264 0.01753865 -0.0030425603
0000b0 55 3e ac 3d 8c 20 7c bc 2f 16 5f be 6b ac 27 bc
       0.084103264 -0.015388619 -0.21785806 -0.010233979
0000c0 5c d2 cd bd 98 d4 78 3d 06 ce 20 bc 93 c7 c8 3c
       -0.100498885 0.06074962 -0.009814745 0.024509227
0000d0 37 e6 91 bd ef 5c 3c 3d 95 2f 79 be 61 26 7f bd
       -0.07123988 0.045987066 -0.24334557 -0.06229246
0000e0 39 4f 57 3d 83 ec e3 3b 3d a4 7e bc 07 7a 06 3e
       0.052565787 0.0069556846 -0.015542087 0.13132487
0000f0 19 bf 25 3e 7f 88 eb bd b5 06 fe 3c af 15 86 bd
       0.16186179 -0.11500644 0.031009058 -0.065471046
000100 5e 4b 59 bd 71 e4 f3 3c a9 b6 6c bc 6d d7 01 be
       -0.05305039 0.029772015 -0.014447846 -0.12679835
000110 6f 12 fb bd af 34 69 3d c9 76 82 bc 03 57 da 3c
       -0.12259375 0.05693501 -0.015925782 0.026652819
000120 f8 32 8e bd 8f a2 09 3e 75 f9 61 bd d8 d7 a0 3d
       -0.06943315 0.13440917 -0.05516954 0.07853669
000130 74 f3 96 bc 53 4d 89 bb 4d a9 b0 3d 34 51 0e bd
       -0.018426634 -0.004190126 0.086260416 -0.03474541
000140 54 23 07 be 7d e4 34 3e 23 82 8e bd 1c 40 08 be
       -0.1319707 0.17665286 -0.06958415 -0.13305706
000150 16 a3 2b 3d 9d 4e 5b bd 5d de 1b bd be 01 e3 ba
       0.041903578 -0.05354177 -0.03805386 -0.0017319245
000160 d1 69 20 bd 45 69 b4 bc ec 92 1a 3e ba 94 36 bc
       -0.039163414 -0.022022853 0.15095109 -0.011143858
000170 b6 d4 e5 bd 9b 01 a8 bd b8 b2 d3 bc af a0 30 be
       -0.11222212 -0.08203431 -0.025842056 -0.17248796
000180 cf 31 45 3c 40 78 52 3c 23 4f a4 bb c4 76 38 be
       0.012035801 0.012846053 -0.0050143166 -0.18014055
000190 5a 0c bf bc 2b 21 04 3d 20 fb 50 3b 0d 6f b8 3c
       -0.02332132 0.032258194 0.0031887963 0.02251389
0001a0 de 25 50 3d 24 01 5c bd c1 a6 70 3d 19 ae 3a be
       0.050817363 -0.053712025 0.05875278 -0.18230475
0001b0 51 fa 83 bc 24 dc cf bd c2 b0 02 3c e9 ea f7 bd
       -0.016110571 -0.1014941 0.007976713 -0.121053524
0001c0 bd 6d 91 3d f4 36 bf bc 03 a3 a2 bd 78 ff b7 3d
       0.07101009 -0.023341633 -0.07941248 0.08984274
0001d0 77 5e 9f 3d fe 70 b8 3d 0a dc 22 3d 4a 1e a5 bc
       0.077816896 0.090059265 0.039760627 -0.020156045
0001e0 83 d1 c3 bc 19 e4 b9 bd af af ae 3d 72 40 42 3d
       -0.023903614 -0.09076709 0.08529603 0.04742474
0001f0 99 2c 65 bd ca fd 21 be 79 fc 71 3d f7 a4 5a bd
       -0.055950735 -0.15819469 0.059078667 -0.05337998
000200 79 fb 11 be fe 8a 9b 3c fc 37 87 3d 7d dd 95 3d
       -0.14256085 0.018987175 0.06602475 0.07317636
000210 b0 69 01 3d 01 cc 7d bd b7 ec 90 3b 19 53 71 bd
       0.031594932 -0.06196213 0.00442275 -0.05891714
000220 59 8f 02 3e 0c a7 97 3c c3 4e d0 bd bc b9 c5 bd
       0.12749995 0.018512271 -0.101712726 -0.09654567
000230 49 e6 2a 3e d9 da 21 bd 78 ec e4 bd 33 0c 8b bd
       0.1668941 -0.03951535 -0.11177915 -0.06789436
000240 2a 9b a5 bd a2 d4 63 3b 8a 13 2e bd 06 82 2f 3d
       -0.08086236 0.003476419 -0.042499103 0.04284861
000250 ad fa 7f 3b d9 23 03 3e b0 32 0d be c9 70 60 bc
       0.0039059327 0.12806644 -0.13788867 -0.013698765
000260 cb 9d 3c be cc b0 c2 3d e8 51 8b bc 80 61 45 3d
       -0.18419568 0.095063776 -0.01700683 0.048188686
000270 32 71 25 3d cb 2c 45 3c 7a 41 8b bd e0 d8 c0 bd
       0.040391155 0.012034605 -0.06799598 -0.094163656
000280 a8 70 e6 bd d8 a3 99 bd d3 30 70 3c 73 63 0f 3d
       -0.11251956 -0.07501954 0.014660078 0.03500695
000290 12 ab 00 be 5e 4d 81 3c a1 50 bd 3c 8a aa 00 3e
       -0.12565258 0.015783962 0.023109736 0.12565055
0002a0 98 7c 99 3c ff 27 8a bd 08 8c 40 bd 40 36 0e be
       0.018736169 -0.0674591 -0.047008544 -0.13887882
0002b0 1a b5 0b bd c3 0f 1b 3d 38 f2 ae bd 8c 28 c0 bc
       -0.03410826 0.03785683 -0.08542293 -0.023456834
0002c0 7d 55 55 3c 76 ca ea bd 90 c0 07 be c1 08 ac bc
       0.01302087 -0.114643976 -0.1325705 -0.021000268
0002d0 f8 69 47 bd ed 1a 07 be dd 0a 1c be 87 76 35 3d
       -0.048685044 -0.13193865 -0.15238519 0.04430249
0002e0 f5 41 37 bc 75 40 d3 3d 57 49 f7 3c 3b 7b ce bd
       -0.011185159 0.103150286 0.030186338 -0.10082098
0002f0 2a 27 2f bd b8 95 32 3d b1 7c a2 bd f9 ca 2f be
       -0.04276196 0.043599814 -0.07933939 -0.17167272
000300 c8 d5 21 be 80 8c c9 bc 87 41 a7 bd 25 ac 6d 3d
       -0.15804207 -0.024603128 -0.08166795 0.058025498
000310 ef dd 2e bc bf 6a 81 bc fd 8e 1a bd 5e 68 e1 3c
       -0.01067303 -0.01579797 -0.03773402 0.027515586
000320 a3 ce 85 bc f8 36 6d 3c ed 2c 77 bd 00 e7 5e bd
       -0.016333884 0.014478438 -0.06034558 -0.054419518
000330 a0 fa a7 bc bb b6 d8 bd bb 0d 85 3d 05 d5 f8 bc
       -0.02050525 -0.10581728 0.064967595 -0.030375013
000340 61 e0 7b 3c 0c 3e f8 3b 1c ee cc 3d 0e 2b 54 3c
       0.01537332 0.007575756 0.10006353 0.012949718
000350 c1 08 f1 bd f4 f4 4c bc 6c f1 fa bc 44 40 89 be
       -0.11769248 -0.012509573 -0.030632697 -0.26806843
000360 1f dd 6c 3e 49 e8 72 3d f2 b4 d4 3c f4 c5 2a 3e
       0.23131226 0.059303556 0.025965188 0.16677076
000370 16 e4 48 3d 33 c8 02 be 86 51 02 bd 82 e3 60 3d
       0.049045645 -0.12771682 -0.031816028 0.05490447
000380 5f 2c 73 3d cd 14 d0 3c a6 bc 1d 3d d0 37 ba bc
       0.059368487 0.025400544 0.038509987 -0.022731692
000390 06 c1 10 bd 5a 0a 3b 3c 67 a9 23 3e 05 e4 8f 3d
       -0.03534033 0.011416042 0.1598259 0.07025913
0003a0 49 81 4a 3d 68 f9 05 bd 6a 41 cc bc eb a7 5b 3d
       0.049439702 -0.032708555 -0.024933536 0.053626936
0003b0 12 e9 74 bd 38 ad bd bd d2 c4 a6 bb 9c 02 03 3d
       -0.059792586 -0.092615545 -0.005089381 0.03198491
0003c0 e9 91 15 3e a9 b7 1c bd 76 35 9d 3d 9c 15 98 3d
       0.14606442 -0.03826109 0.076762125 0.07425997
0003d0 a1 39 98 bd 33 ea ed 3c b9 c8 0a 3d cb 4f 01 bc
       -0.07432867 0.029042339 0.03388283 -0.007892559
0003e0 10 28 a8 bd 47 f7 17 3e d9 9f 0d be 14 e8 ed bc
       -0.08210766 0.14840423 -0.13830508 -0.029041328
0003f0 6a 46 26 bd 55 b3 40 bd 2a ee 3d 3e b6 16 04 3e
       -0.040594496 -0.047046024 0.18547884 0.12899289
