src/control/nn_params/Go1Getup/hidden_2_bias.npy (npy, 640 bytes, 1 tensors)

array f4 [128]
-0.0013131293 -0.014148465 -0.008285105 -0.15709603 0.025771452 -0.0076565505 0.109415226 0.020786522
-0.22336413 -0.09412643 -0.0483325 -0.049562253 -0.13635239 -0.108030125 -0.0027156535 -0.14916834
-0.07007748 -0.014760814 -0.18670788 -0.025147086 -0.11157588 -0.032373607 -0.1596415 0.019210568
-0.00010235743 -0.10567577 -0.020398706 0.015602431 -0.20448194 -0.10441046 -0.1641416 0.021832509
-0.0038626678 -0.13260028 -0.12999672 0.013687482 -0.16499303 -0.038708404 -0.20199336 -0.047429413
-0.13566484 -0.022494212 -0.090927094 0.014956966 -0.17114842 -0.1600162 -0.09167978 0.049458165
-0.04988415 0.014047054 -0.15107384 -0.074699454 -0.05887319 0.04814545 -0.030958401 -0.2396862
-0.084011644 0.003010371 -0.05844633 0.011821187 -0.063882016 -0.06194649 0.049286183 -0.1412064
0.030739656 -0.0697195 0.026488319 -0.057690557 0.0293554 0.008748229 -0.016958138 -0.18769015
-0.14389329 0.030071806 -0.04210227 -0.15517233 -0.010621346 -0.08884237 -0.10049815 -0.018982494
-0.031413622 0.006669806 -0.10203156 -0.10094913 0.027448269 0.04622481 0.040295064 -0.010872109
0.037306406 -0.016579967 -0.07045666 -0.017425334 -0.11580449 0.009068314 -0.031464156 -0.08447761
-0.12858921 -0.06675855 -0.093653895 0.029965175 -0.03355676 -0.207911 -0.008288502 -0.14634009
-0.033417292 0.00376961 -0.13807745 -0.00428033 -0.035563875 -0.014394537 -0.10671883 -0.022475712
-0.06298174 -0.12955454 0.030862512 -0.0008146069 -0.07315001 -0.031213963 -0.22742806 -0.06754486
-0.055274583 -0.09986019 -0.030674635 -0.058147527 0.0400444 0.013125236 -0.16062395 -0.027873762
00000000: 4f1d acba f7ce 67bc 40be 07bc c8dd 20be
00000010: a71e d33c cde3 fabb 1715 e03d 7f48 aa3c
00000020: 91b9 64be 5cc5 c0bd 4df8 45bd ca01 4bbd
00000030: f69f 0bbe e63e ddbd 1bf9 31bb 96bf 18be
00000040: c884 8fbd 57d7 71bc 5a30 3fbe 4301 cebc
00000050: e581 e4bd 309a 04bd 1079 23be 7b5f 9d3c
00000060: baa8 d6b8 8a6c d8bd 301b a7bc 57a1 7f3c
00000070: b763 51be 27d5 d5bd bc14 28be 17da b23c
00000080: d024 7dbb 5ec8 07be dc1d 05be 7641 603c
00000090: eff3 28be b48c 1ebd 59d7 4ebe 5845 42bd
000000a0: b9eb 0abe c845 b8bc fc37 babd 100e 753c
000000b0: 8841 2fbe 49db 23be 9cc2 bbbd a594 4a3d
000000c0: 5353 4cbd 9d25 663c 1ab3 1abe 07fc 98bd
000000d0: 0425 71bd 2a34 453d 799c fdbc 4d70 75be
000000e0: 4c0e acbd a549 453b 6b65 6fbd a7ad 413c
000000f0: 93d4 82bd 9abb 7dbd 4fe0 493d 6998 10be
00000100: bbd1 fb3c 19c9 8ebd 08fe d83c ef4c 6cbd
00000110: bc7a f03c bb54 0f3c cbeb 8abc d931 40be
00000120: c358 13be 2659 f63c 6e73 2cbd 7fe5 1ebe
00000130: 2705 2ebc fdf2 b5bd f9d1 cdbd 2d81 9bbc
00000140: 92ab 00bd 638e da3b ecf5 d0bd 6bbe cebd
00000150: 31db e03c 3a56 3d3d 700c 253d ee20 32bc
00000160: 9ace 183d b6d2 87bc 954b 90bd 93bf 8ebc
00000170: e82a edbd 4493 143c 8fe0 00bd 9902 adbd
00000180: e4ac 03be b5b8 88bd 9dcd bfbd 8779 f53c
00000190: d072 09bd 9fe6 54be 7fcc 07bc 2dda 15be
000001a0: 92e0 08bd 900b 773b 2d64 0dbe 0342 8cbb
000001b0: 6dab 11bd 10d7 6bbc 678f dabd fc1e b8bc
000001c0: 92fc 80bd f2a9 04be 61d3 fc3c 588b 55ba
000001d0: accf 95bd 6db4 ffbc e7e2 68be f654 8abd
000001e0: 9a67 62bd 8083 ccbd 5f49 fbbc 1a2c 6ebd
000001f0: 9905 243d 3b0b 573c 9b7a 24be 8457 e4bc
