examples/mujoco_Go1/nn_params/Go1Handstand/hidden_0_kernel.npy (npy, 92288 bytes, 1 tensors)

array f4 [45, 512]
0.35225955 0.09860727 0.0709509 -0.16882843 -0.1584298 0.05133545 -0.26179448 0.06287574
0.242728 0.24454643 0.041081246 0.1722412 0.031714115 -0.42363903 -0.068394974 -0.13141772
-0.07841216 -0.2577857 0.25569987 -0.27949393 -0.10948444 -0.060446247 -0.28545043 0.04524346
-0.12593246 -0.0048818286 -0.056818154 -0.34836337 0.050845843 0.2231311 -0.061223276 -0.23457904
0.5271799 0.15368126 -0.15834555 -0.012448045 -0.3831167 -0.38582334 -0.10924058 -0.12521298
-0.12496526 0.11448165 0.18794471 0.067935474 0.24906652 0.11255754 0.24488184 0.31078514
-0.142695 0.09134118 0.11178394 0.2060331 -0.18501371 0.1268487 0.14869125 -0.5055449
0.0126465 0.314878 0.38673154 0.039695982 0.2857129 -0.039461248 -0.18900618 0.24501951
0.067721635 -0.31773606 0.143366 0.07424986 -0.030079393 0.00033476827 0.15022193 0.003806246
-0.07431002 0.040633738 0.3405149 0.21955077 -0.32095626 0.1342635 0.10033144 -0.29273474
0.12639211 -0.30011126 -0.26192707 -0.092115514 0.06414665 0.17108123 0.40936273 0.13673554
-0.30260134 0.1376813 0.12184601 0.039377604 -0.015434654 0.3558614 0.00980252 0.063169025
0.15427998 -0.031202992 0.23453042 -0.14235054 -0.10773085 -0.13751882 -0.35865283 -0.017329922
-0.15160158 0.1472622 -0.20774911 -0.16587278 -0.3080541 0.06321429 -0.042812068 0.1751974
0.42783296 -0.10592619 0.07994577 0.4724439 0.20414421 -0.115899265 -0.30084842 0.31863147
-0.22780061 0.5177523 -0.29943848 0.1345505 0.073957 -0.21618696 -0.04672649 0.30057868
-0.30166656 0.04278529 -0.20079924 0.15754883 -0.082073435 -0.32568267 0.16700901 -0.02275393
-0.32989973 -0.06965066 0.21357827 0.2480581 0.18781374 0.16953479 0.08780048 0.38285694
-0.25905368 -0.098942414 -0.4608289 0.37332395 0.21260051 -0.2503289 0.08357873 -0.014444831
0.10852795 0.20914705 -0.16999866 -0.22377671 0.101616666 -0.40932778 0.3699241 -0.013526848
-0.1335155 0.22537066 0.074588686 -0.24134459 0.02281352 -0.015247808 0.33125135 -0.17974938
0.24870059 0.12742686 -0.16239208 -0.017184582 -0.09263668 -0.050232243 -0.10931394 -0.34492606
-0.16903931 0.3464373 0.11057659 -0.18473211 -0.0836818 0.041137077 -0.0032747302 0.21285287
0.19359297 0.040125467 -0.20745897 -0.5753011 0.28662106 0.19027072 -0.16357282 -0.43495116
0.0028843204 0.1236479 -0.31868067 0.0057862904 -0.39313406 0.034561932 0.025353653 -0.08083379
0.38339543 0.091019586 -0.07855115 0.1190954 -0.030989986 0.24352518 0.012029953 -0.153817
0.30426884 0.009258959 0.16235645 -0.042460926 -0.19512561 0.11070807 0.10807924 -0.29979298
-0.35954586 -0.36248264 0.46060368 -0.19838728 -0.036977492 0.49039522 0.21844786 0.059968244
-0.16330475 -0.013457394 -0.054367367 0.1578182 -0.14152086 -0.0060254615 -0.49871624 0.13267449
0.0038849805 -0.4500469 0.013852151 0.25998926 0.3407587 0.42222932 0.4736198 -0.32232437
0.44308826 0.03050958 -0.13085717 -0.3892062 -0.072631985 -0.2671526 -0.02474478 -0.54856527
0.23329645 -0.034524918 0.10751868 0.44715098 -0.31274733 0.27061036 0.27432936 -0.27207172
00000000: 5d5b b43e 9cf2 c93d b54e 913d 5ce1 2cbe
00000010: 6c3b 22be 1f45 523d ed09 86be ffc4 803d
00000020: b08d 783e 616a 7a3e cf44 283d ff5f 303e
00000030: a9e6 013d 37e7 d8be aa12 8cbd 5e92 06be
00000040: 8e96 a0bd 7dfc 83be 18eb 823e d419 8fbe
00000050: 6139 e0bd 7c96 77bd 8f26 92be 3551 393d
00000060: 70f4 00be bff7 9fbb 27ba 68bd af5c b2be
00000070: bb43 503d 7b7c 643e 42c5 7abd 7d35 70be
00000080: 43f5 063f 9f5e 1d3e 5625 22be e3f2 4bbc
00000090: df27 c4be a38a c5be 86b9 dfbd d537 00be
000000a0: c9ed ffbd 5b75 ea3d 9474 403e c121 8b3d
000000b0: 4b0b 7f3e 9184 e63d 4ec2 7a3e 3b1f 9f3e
000000c0: a31e 12be 1611 bb3d faee e43d 57fa 523e
000000d0: 3c74 3dbe a0e4 013e 8542 183e 646b 01bf
000000e0: 4433 4f3c b037 a13e ad01 c63e 4198 223d
000000f0: f648 923e 1ea2 21bd d68a 41be 65e6 7a3e
00000100: a4b1 8a3d 4dae a2be 89ce 123e 5010 983d
00000110: 0f69 f6bc d683 af39 c7d3 193e 3672 793b
00000120: da2f 98bd 906f 263d f857 ae3e ebd1 603e
00000130: 6154 a4be 5f7c 093e 927a cd3d 54e1 95be
00000140: ef6c 013e 2fa8 99be 4e1b 86be 0fa7 bcbd
00000150: 525f 833d eb2f 2f3e fe97 d13e 6704 0c3e
00000160: 90ee 9abe 54fc 0c3e 678a f93d 694a 213d
00000170: a2e1 7cbc 7733 b63e c09a 203c c35e 813d
00000180: 92fb 1d3e 6b9d ffbc be28 703e 57c4 11be
00000190: fea1 dcbd bcd1 0cbe 58a1 b7be 7bf7 8dbc
000001a0: 723d 1bbe e7cb 163e 2fbc 54be 8eda 29be
000001b0: 44b9 9dbe 7e76 813d b55b 2fbd f266 333e
000001c0: ec0c db3e d5ef d8bd 9cba a33d 2be4 f13e
000001d0: 2e0b 513e 985c edbd ce08 9abe aa23 a33e
000001e0: 9044 69be 6a8b 043f 0050 99be 9bc7 093e
000001f0: c576 973d 1d60 5dbe 4764 3fbd 73e5 993e
00000200: 0a74 9abe a13f 2f3d 519e 4dbe 7b54 213e
00000210: 1e16 a8bd e1bf a6be 6904 2b3e 7366 babc
00000220: 9ee8 a8be 01a5 8ebd 43b4 5a3e f102 7e3e
00000230: 3f52 403e 879a 2d3e bdd0 b33d d305 c43e
00000240: afa2 84be 52a2 cabd c4f1 ebbe 5124 bf3e
00000250: f3b3 593e 1c2b 80be 532b ab3d 03aa 6cbc
00000260: e743 de3d a52a 563e 2114 2ebe b925 65be
00000270: 661c d03d 6993 d1be b166 bd3e b69f 5dbc
00000280: 4ab8 08be 91c7 663e f4c1 983d 0923 77be
00000290: 6be3 ba3c f1d1 79bc c799 a93e 3910 38be
000002a0: 5eab 7e3e 307c 023e 1c4a 26be aec6 8cbc
000002b0: 4db8 bdbd 53c0 4dbd fddf dfbd 269a b0be
000002c0: a418 2dbe 3b60 b13e fb75 e23d 6a2a 3dbe
000002d0: 5d61 abbd 5a7f 283d db9c 56bb 1af6 593e
000002e0: 3c3d 463e 9a5a 243d 2070 54be ef46 13bf
000002f0: ffbf 923e 54d6 423e a27f 27be ebb1 debe
00000300: de06 3d3b 1c3b fd3d 1d2a a3be ec9a bd3b
00000310: de48 c9be d090 0d3d 77b2 cf3c 308c a5bd
00000320: 684c c43e 7a68 ba3d 6ddf a0bd 4ae8 f33d
00000330: b6de fdbc aa5e 793e 4819 453c 3482 1dbe
00000340: 20c9 9b3e e4b2 173c c540 263e 82eb 2dbd
00000350: 02cf 47be eaba e23d a658 dd3d 777e 99be
00000360: 6516 b8be 5397 b9be 3fd4 eb3e 0926 4bbe
00000370: b675 17bd 1515 fb3e ccb0 5f3e 43a1 753d
00000380: 5c39 27be 677c 5cbc 51b0 5ebd 189b 213e
00000390: d8ea 10be 3c71 c5bb bc57 ffbe d2db 073e
000003a0: 289b 7e3b 8c6c e6be 22f4 623c 501d 853e
000003b0: ed77 ae3e 712e d83e 4b7e f23e b307 a5be
000003c0: 77dc e23e 3aef f93c 6cff 05be 0946 c7be
000003d0: 14c0 94bd 3ac8 88be 91b5 cabc c66e 0cbf
000003e0: 44e5 6e3e 006a 0dbd c132 dc3d f9f0 e43e
000003f0: 6b20 a0be 718d 8a3e e674 8c3e fc4c 8bbe
