examples/mujoco_Go1/nn_params/Go1Handstand/hidden_3_kernel.npy (npy, 12416 bytes, 1 tensors)

array f4 [128, 24]
0.027539894 0.011782331 0.046412855 -0.031145211 -0.0086363675 0.036456317 0.030573785 -0.023003537
0.023599798 0.012356674 0.13374595 -0.09103559 -0.00430014 -0.020682814 -0.04777277 -0.16729201
-0.08194126 0.0045061805 -0.070490494 0.013882671 -0.043164406 -0.01703125 0.028500235 -0.015140006
-0.025411444 0.052050803 0.03857263 -0.09876056 -0.01457826 0.06190022 0.042911887 0.10963083
0.068273425 0.03175312 -0.02388832 -0.087323405 -0.0024719962 -0.013652115 0.010458565 0.10536443
-0.013455506 -0.04435839 0.02392355 0.017550398 0.043336775 -0.022452012 -0.04622843 0.026759027
0.058790155 -0.101846136 0.07653057 -0.0045881057 -0.012019053 -0.03643824 0.06572412 0.049761392
-0.052087277 -0.0017456684 -0.08636907 0.044778187 -0.0031348297 -0.07942665 0.08567146 0.061180864
-0.07007768 -0.016563985 -0.04934378 -0.0021747474 0.032658257 -0.01907915 0.01237431 -0.030662507
0.041735105 -0.007454266 0.013078782 -0.22608131 0.24348071 0.08712866 0.09875364 -0.012473434
-0.00311263 0.09394984 0.017176203 0.010372173 0.0014936817 -0.061487142 -0.015590354 0.04608321
-0.07979312 0.060902413 -0.037294257 -0.010250583 -0.010523706 -0.0025616877 0.016584462 -0.034226105
0.06546278 -0.019453172 0.017843412 -0.056895718 -0.009637985 -0.006987299 -0.05085663 0.02555623
0.0009080815 -0.097716875 -0.01680964 -0.04181724 0.013723499 -0.039606575 -0.115224175 0.060938243
-0.14799929 -0.14483282 -0.04792295 -0.14676672 -0.04475437 -0.09036417 -0.07849253 -0.12836649
-0.1312546 0.033354536 -0.14686453 -0.009783887 -0.009506761 -0.016544787 -0.00982392 0.062159155
0.023416467 -0.020250835 -0.02745774 0.024793126 0.057313494 -0.016003586 0.02980687 -0.07010933
0.030128742 0.0032998582 -0.072593994 0.04563632 -0.06860775 0.016313672 -0.014597662 -0.043235496
0.03846406 0.0040264446 0.030775158 0.014501332 0.095202886 0.015943361 -0.0062756427 -0.03712736
0.095729 -0.018544042 -0.039412033 0.124575615 -0.0731453 -0.0825817 0.10588818 -0.09078924
-0.043766156 0.017453093 -0.062410444 -0.005681557 -0.07653001 -0.1168518 -0.04660199 -0.017021615
0.015322439 0.09412182 0.051050283 0.053371422 0.012974318 0.019966403 0.052571934 -0.037107132
-0.021249112 -0.085899554 -0.011301391 -0.07776442 -0.097490996 -0.098539695 0.11752214 0.029543338
-0.13630868 0.027276438 -0.04324551 -0.09385115 -0.064069614 -0.067487136 -0.07432032 -0.08928081
0.14158532 0.033709 0.028025886 -0.042574424 0.068794474 -0.021559153 -0.021685198 -0.069295205
0.043332852 -0.10503354 0.09883046 0.0025686943 0.05532026 -0.073009744 0.060451288 0.054991435
0.07751163 0.037186015 0.008519289 0.06610678 -0.0022700436 0.07163186 0.04138021 0.08548872
-0.009605996 0.094032206 -0.03650082 0.07593448 -0.0674139 0.03465871 -0.0117835 0.023970768
-0.0030335363 -0.08022549 -0.109446384 -0.0059603243 0.014255625 0.010599818 0.0038169657 -0.0028283123
0.0023359044 0.07196926 -0.006274921 0.0054443725 -0.011898899 0.01153669 0.036680173 0.08921717
-0.046019815 0.00040723768 -0.024715148 -0.025804574 -0.015741784 -0.027692433 -0.006939101 -0.023297694
0.1673145 -0.08515988 0.10101748 -0.08742755 -0.04425983 0.049999863 -0.111902215 -0.014007327
00000000: 589b e13c ae0a 413c 681b 3e3d 3e24 ffbc
00000010: 8d7f 0dbc 3853 153d e075 fa3c ea71 bcbc
00000020: 5d54 c13c a673 4a3c b3f4 083e de70 babd
00000030: 30e8 8cbb 016f a9bc 61ad 43bd 994e 2bbe
00000040: d2d0 a7bd 95a8 933b 525d 90bd 2474 633c
00000050: 29cd 30bd 1f85 8bbc 5379 e93c ca0d 78bc
00000060: a92b d0bc 3933 553d 56fe 1d3d fa42 cabd
00000070: a7d9 6ebc 168b 7d3d 60c4 2f3d 2186 e03d
00000080: f0d2 8b3d 8f0f 023d 70b1 c3bc 9dd6 b2bd
00000090: 3701 22bb 1fad 5fbc 675a 2b3c 4ec9 d73d
000000a0: 7c74 5cbc 25b1 35bd 52fb c33c dac5 8f3c
000000b0: e781 313d 48ed b7bc 065a 3dbd bf35 db3c
000000c0: f2cd 703d b594 d0bd 0fbc 9c3d d257 96bb
000000d0: 90eb 44bc 4440 15bd 5e9a 863d 9ad2 4b3d
000000e0: 7859 55bd e9ce e4ba 44e2 b0bd 5569 373d
000000f0: b771 4dbb 71aa a2bd 8574 af3d c998 7a3d
00000100: e384 8fbd 32b1 87bc b41c 4abd 3586 0ebb
00000110: aac4 053d e14b 9cbc 9ebd 4a3c f02f fbbc
00000120: 6ef2 2a3d ea42 f4bb 6348 563c dc81 67be
00000130: 0253 793e 8370 b23d 593f ca3d 605d 4cbc
00000140: 44fd 4bbb c668 c03d 1cb5 8c3c 0cf0 293c
00000150: a4c7 c33a f1d9 7bbd af6e 7fbc bfc1 3c3d
00000160: 936a a3bd cf74 793d ddc1 18bd 10f2 27bc
00000170: 9f6b 2cbc fde1 27bb 23dc 873c ac30 0cbd
00000180: 5a11 863d 425c 9fbc 592c 923c 7c0b 69bd
00000190: a4e8 1dbc b6f5 e4bb 0b4f 50bd 4d5b d13c
000001a0: 510c 6e3a c91f c8bd 5fb4 89bc 8e48 2bbd
000001b0: 87d8 603c 813a 22bd a7fa ebbd 619a 793d
000001c0: 208d 17be 0e4f 14be db4a 44bd 044a 16be
000001d0: 5c50 37bd da10 b9bd b1c0 a0bd 8172 03be
000001e0: 9b67 06be c49e 083d a863 16be 994c 20bc
000001f0: 3fc2 1bbc ef88 87bc 82f4 20bc 999a 7e3d
00000200: e4d3 bf3c 14e5 a5bc 0eef e0bc f41a cb3c
00000210: 8ec1 6a3d f419 83bc 892d f43c 7b95 8fbd
00000220: 8dd0 f63c 6f42 583b 29ac 94bd 26ed 3a3d
00000230: 3882 8cbd 40a4 853c 082b 6fbc b417 31bd
00000240: 7d8c 1d3d 44f0 833b 2f1c fc3c ff96 6d3c
00000250: bbf9 c23d a79b 823c e8a3 cdbb dc12 18bd
00000260: 910d c43d ade9 97bc 836e 21bd 8021 ff3d
00000270: 34cd 95bd 9820 a9bd e7db d83d b6ef b9bd
00000280: 2444 33bd caf9 8e3c 18a2 7fbd 5b2c babb
00000290: c4bb 9cbd ff4f efbd bae1 3ebd ea70 8bbc
000002a0: f80a 7b3c f1c2 c03d 1a1a 513d fe9b 5a3d
000002b0: 3c92 543c 9590 a33c ab55 573d a6fd 17bd
000002c0: 9e12 aebc 1bec afbd 7829 39bc f442 9fbd
000002d0: 5ca9 c7bd 2ecf c9bd 73af f03d df04 f23c
000002e0: 8194 0bbe d672 df3c 3422 31bd 0835 c0bd
000002f0: ee36 83bd b236 8abd 4035 98bd dbd8 b6bd
00000300: befb 103e 7312 0a3d 8b96 e53c 8562 2ebd
00000310: 1ee4 8c3d d29c b0bc 28a5 b1bc a5ea 8dbd
00000320: ca7d 313d d31b d7bd a067 ca3d 8a57 283b
00000330: 7f97 623d 2286 95bd c59b 773d b33e 613d
00000340: 6bbe 9e3d 5d50 183d 7d94 0b3c fe62 873d
00000350: 03c5 14bb bab3 923d 4c7e 293d b614 af3d
00000360: 7862 1dbc f593 c03d e281 15bd 8983 9b3d
00000370: 4c10 8abd 4bf6 0d3d 950f 41bc 585e c43c
00000380: 4bce 46bb 434d a4bd 6d25 e0bd d34e c3bb
00000390: 6d90 693c dcaa 2d3c 0f26 7a3b 355b 39bb
000003a0: f915 193b 9f64 933d da9d cdbb b566 b23b
000003b0: 9af3 42bc 6304 3d3c f33d 163d 7eb7 b63d
000003c0: 467f 3cbd 8482 d539 6c77 cabc 1d64 d3bc
000003d0: eaf4 80bc 3edb e2bc 6661 e3bb ceda bebc
000003e0: 7e54 2b3e 4e68 aebd 41e2 ce3d 370d b3bd
000003f0: cc49 35bd a8cc 4c3d fd2c e5bd fd7e 65bc
