src/control/nn_params/Go1JoystickFlatTerrain/hidden_2_bias.npy (npy, 640 bytes, 1 tensors)

array f4 [128]
00000000: a05e a83b 418d 98bc fafd cfbd b21c 90be
00000010: e7ee 033d 7d1a dbbb 1bb1 143e f992 093c
00000020: b2df a9be c65f 2abd 9950 28be 63e5 1abd
00000030: 36c6 35be 3a46 e5bc 0bdd 393d 50cc a5be
00000040: 9099 fbbd 8b04 29bd dc5a 18be 48ec baba
00000050: 148f 4abd 0522 4bbc 49ec 60be 433b a0bc
00000060: edf7 a53b 8639 25be d9b3 ae3a 13f1 083d
00000070: 45fa c0be 5b4d 3cbe c0cd 24be 75ed f0bc
00000080: 6d95 74bd f8cc 6cbe b563 d5bd e681 bdbb
00000090: f4aa 34be 28db 3ebd da6e 84be c8e8 2bbd
000000a0: 4300 26be 7bb5 abbd 60f1 89be f258 62bb
000000b0: 2d41 babe ac57 88bd 2703 50bd add6 e13d
000000c0: 1dc0 acbd 22d7 66bc 45e2 9abe fb56 a4bd
000000d0: 052a c1bd d161 0d3d 18f8 bfbc 2cf5 a0be
000000e0: 0249 34be d0f9 103c ebd2 a1bb e571 f6bc
000000f0: 7c64 59bc 26e6 c8bd 9ea0 f03c 5e1b 42bd
00000100: 7f3a 2dbd 25ee 1abe 8b43 d63c f8fb 43be
00000110: d07a 1f36 b201 01bd f52f b5bd c38c b9be
00000120: 87e0 8abd e982 313c 25bd 9ebd 270a 98be
00000130: 1cf9 923c 579c 09be d1ff dbbc e8a5 5a3c
00000140: e147 a0bd 03e0 d23c ccd8 48be 357a efbd
00000150: cbc5 c6bb 5d68 163c fc2b 90bd 83ba bcbd
00000160: 0ace 4d3c 1aa3 79bb df56 01be 1cc1 0abd
00000170: 13f5 a5be 33e0 98bc d5c6 44be 9178 97bd
00000180: 956f 6cbe 3bd9 babd 3a81 10bd 3259 953d
00000190: 4bfe 42bd d3cb 05be c6a3 153c 6b22 28be
000001a0: 2946 4dbd b324 1eb9 9801 69be 5bd8 f3bc
000001b0: 9904 47be 2c97 51bd 46cc 95be ec86 58bd
000001c0: f0be 73be 9b68 8bbe 1c01 3c3d 74ce 183b
000001d0: c93d 9e3d 317b 1e3d 5022 6dbe 75aa 96be
000001e0: 71b5 e1bd 3dc7 30be 0b0d e2bd 93a1 2cbc
000001f0: 713a 003d 6c04 abbd e298 b4bd 19be 4dbd
0.0051382333 -0.018622043 -0.10155864 -0.28146893 0.032210257 -0.0066865073 0.14520685 0.008396857
-0.33178478 -0.041595243 -0.16436996 -0.037816416 -0.17751393 -0.027987588 0.04537682 -0.3238244
-0.12285149 -0.0412641 -0.1487841 -0.0014261091 -0.049452856 -0.012398248 -0.21965136 -0.019559508
0.0050649554 -0.16135225 0.0013328745 0.03343303 -0.3769094 -0.18388884 -0.16094112 -0.029410103
-0.059712816 -0.23125064 -0.10419408 -0.0057833074 -0.17643338 -0.046595722 -0.25865823 -0.041970044
-0.16211037 -0.08384224 -0.26941967 -0.0034537879 -0.3637785 -0.06657347 -0.050784256 0.11027274
-0.0843508 -0.014089378 -0.30250755 -0.08024403 -0.09431843 0.034517113 -0.02343373 -0.3143705
-0.17605975 0.008848622 -0.0049384735 -0.030083606 -0.013268586 -0.09809522 0.029373463 -0.04738938
-0.042292114 -0.15129907 0.026155254 -0.19139087 2.3764333e-06 -0.031495757 -0.08847038 -0.36240205
-0.067811064 0.010834434 -0.0775092 -0.29695246 0.01794105 -0.13438545 -0.026855381 0.013345219
-0.0782621 0.025741583 -0.19613951 -0.11693231 -0.006066059 0.009180156 -0.07039639 -0.09215262
0.012561331 -0.00380916 -0.12630795 -0.03387557 -0.3241354 -0.018661594 -0.19216473 -0.07396043
-0.2308944 -0.09123465 -0.03527949 0.07292403 -0.047605794 -0.13066034 0.009133285 -0.1641938
-0.050115738 -0.00015081726 -0.22754514 -0.029766252 -0.19435348 -0.05116956 -0.2925741 -0.052863047
-0.23803306 -0.27228245 0.045899495 0.0023316415 0.07726628 0.038691703 -0.2315762 -0.29426923
-0.11020935 -0.17263503 -0.11037644 -0.010536569 0.031305734 -0.08350453 -0.088182226 -0.05023012
