src/control/nn_params/Go1JoystickFlatTerrain/hidden_0_kernel.npy (npy, 98432 bytes, 1 tensors)

array f4 [48, 512]
-0.050007313 0.0008366378 -0.08424649 -0.01913791 0.040829636 0.100776576 -0.18610413 -0.0027010625
-0.34560758 0.33177108 -0.33979475 0.004567881 0.18047382 0.1460109 -0.11939857 0.24078228
-0.073576204 -0.24685681 0.14279269 0.11759266 0.45418277 0.21093681 -0.45806628 0.24375133
0.28908724 0.018060125 -0.14163093 0.108816236 -0.15753335 -0.052832562 -0.27851075 0.15015864
0.38453928 0.074314214 -0.26889476 0.12553443 -0.11597625 -0.4017887 -0.32482418 -0.2928966
-0.093854606 0.29720956 -0.15857604 -0.21754503 0.055417668 -0.04902033 -0.187692 0.16405624
-0.029903648 -0.079014465 -0.48287964 -0.24880485 0.08896273 -0.032848623 0.12118611 -0.39923245
0.048730567 0.16102622 -0.26647043 -0.43233758 0.05646102 0.05510576 -0.2400325 -0.1254376
0.06462242 -0.26407564 0.3480326 0.20144151 0.22560512 0.11258112 -0.12366055 0.063736305
0.039273754 -0.02094782 0.08685795 0.32511273 0.101167865 0.19069667 -0.07143017 -0.3667259
0.3106753 0.07589507 -0.056591243 0.08944899 -0.018831803 0.038649797 -0.058455814 0.20356172
-0.19804573 0.32587898 0.012000304 0.14726804 -0.14939883 0.115316235 0.3162201 0.4185491
-0.09499385 -0.11106406 0.022343913 0.20566769 0.0034622897 -0.058362897 0.31590733 -0.058809843
-0.12679467 0.41412336 -0.3159068 -0.16971798 -0.49376732 -0.067619644 -0.09584296 0.032448273
-0.42214805 0.03542672 -0.18725772 -0.37181887 0.27923238 0.29606697 -0.29497868 -0.16773954
0.2985963 0.38760778 0.093969055 0.3508792 -0.04939618 -0.2039509 -0.46995187 -0.18856925
0.07612631 0.28332034 0.24458337 0.14622761 0.15608472 -0.07890822 0.010844323 0.004380272
0.16066495 -0.17460206 -0.46254122 0.24793054 0.046881747 0.293187 0.35594103 0.057901103
0.22492342 -0.037559446 -0.2494613 0.0887938 0.12901936 -0.08656816 -0.16969134 0.032017395
-0.1850535 0.032571852 0.313233 0.36672914 -0.4091327 -0.118072234 -0.14182237 -0.1283144
-0.14052913 -0.543952 -0.07761548 -0.06889529 0.16369894 -0.35056278 -0.35550246 -0.18980998
-0.24426349 0.31830826 0.16141461 -0.30973512 -0.18219914 0.3003494 0.32155582 0.102323934
-0.17636909 0.056313854 -0.025634091 -0.13953575 -0.13440828 -0.08980558 -0.19921787 -0.018228903
0.023037054 0.14579374 0.09279867 0.12920327 -0.022483645 -0.14672235 0.017514598 -0.32602894
-0.3419322 0.1364705 0.2216159 -0.22567426 0.20994498 -0.3536807 0.069155306 0.20032015
0.1524516 -0.03249212 -0.36327776 -0.3160516 -0.23624392 0.21164571 0.09244084 -0.292304
0.3681207 0.10071198 0.059929464 -0.0033980731 -0.11955063 -0.00461122 -0.03686888 0.35321
-0.099391885 0.20235047 -0.202861 -0.111899145 -0.4136752 -0.17060532 -0.24093543 0.3478074
-0.2646148 -0.20432687 -0.41017428 -0.3685211 0.23355891 -0.065569974 -0.36669788 0.27849016
0.25544673 0.18828246 -0.3016354 0.47150803 -0.255037 -0.20092532 -0.08371789 0.13540871
-0.17970186 0.13593602 0.31729385 0.22935548 -0.17615905 0.1888227 0.4296292 -0.17561875
0.10403733 -0.22299898 -0.3713227 -0.3309941 -0.29367024 -0.0534459 -0.25017312 -0.20090804
00000000: 78d4 4cbd d051 5b3a 6c89 acbd 1bc7 9cbc
00000010: fa3c 273d f363 ce3d 1592 3ebe 4f04 31bb
00000020: 7af3 b0be e6dd a93e 94f9 adbe 2aae 953b
00000030: 21ce 383e e283 153e 3d87 f4bd a18f 763e
00000040: 1faf 96bd 08c8 7cbe 3f38 123e 6cd4 f03d
00000050: a58a e83e d2ff 573e aa87 eabe f399 793e
00000060: 3e03 943e d4f2 933c b307 11be 0cdb de3d
00000070: 6c50 21be f566 58bd f698 8ebe 30c3 193e
00000080: 55e2 c43e 0d32 983d 93ac 89be 198c 003e
00000090: f584 edbd 40b7 cdbe 5b4f a6be 8bf6 95be
000000a0: d836 c0bd da2b 983e c261 22be 20c4 5ebe
000000b0: a3fd 623d 8bc9 48bd 5532 40be 5cfe 273e
000000c0: 7ff8 f4bc 56d2 a1bd 003c f7be b3c6 7ebe
000000d0: 1732 b63d 478c 06bd 6c30 f83d 3268 ccbe
000000e0: b499 473d 0fe4 243e d06e 88be 5a5b ddbe
000000f0: ac43 673d 94b6 613d 14cb 75be b772 00be
00000100: c258 843d ec34 87be 5431 b23e af46 4e3e
00000110: 0705 673e ee90 e63d be41 fdbd 2e88 823d
00000120: 84dd 203d c39a abbc 95e2 b13d 2d75 a63e
00000130: 1931 cf3d fd45 433e fb49 92bd 7fc3 bbbe
00000140: d510 9f3e e06e 9b3d 38cc 67bd 0831 b73d
00000150: 2745 9abc 404f 1e3d 5d6f 6fbd 7c72 503e
00000160: 80cc 4abe 9cd9 a63e ec9c 443c 6fcd 163e
00000170: 02fc 18be eb2a ec3d 9ae7 a13e 114c d63e
00000180: 238c c2bd 8e75 e3bd 950a b73c 8d9a 523e
00000190: 95e7 623b ef0d 6fbd 9bbe a13e 97e2 70bd
000001a0: 76d6 01be fa07 d43e 89be a1be 8dca 2dbe
000001b0: 12cf fcbe 2b7c 8abd 5049 c4bd 7be8 043d
000001c0: ca23 d8be 9c1b 113d 7dc0 3fbe 0b5f bebe
000001d0: 8cf7 8e3e 1796 973e 7207 97be eac3 2bbe
000001e0: 9de1 983e 8774 c63e d972 c03d 70a6 b33e
000001f0: a653 4abd 81d8 50be 889d f0be 4c18 41be
00000200: 1ce8 9b3d 5d0f 913e 1074 7a3e b1bc 153e
00000210: acd4 1f3e a29a a1bd 63ac 313c 6288 8f3b
00000220: 5a85 243e e2ca 32be 34d2 ecbe 81e1 7d3e
00000230: 1307 403d 9b1c 963e e73d b63e b529 6d3d
00000240: 5352 663e efd7 19bd c872 7fbe 86d9 b53d
00000250: a71d 043e a64a b1bd 91c3 2dbe ac24 033d
00000260: aa7e 3dbe 106a 053d 1360 a03e ecc3 bb3e
00000270: d779 d1be dbcf f1bd e239 11be da64 03be
00000280: dee6 0fbe 7040 0bbf ddf4 9ebd f918 8dbd
00000290: b2a0 273e f77c b3be 6b04 b6be 8c5d 42be
000002a0: 3520 7abe 4df9 a23e df49 253e 9a95 9ebe
000002b0: 6992 3abe 66c7 993e f7a2 a43e 368f d13d
000002c0: 199a 34be 5ba9 663d 96fe d1bc 76e2 0ebe
000002d0: 53a2 09be fdeb b7bd c5ff 4bbe c854 95bc
000002e0: 34b8 bc3c f44a 153e 3b0d be3d dd4d 043e
000002f0: 9f2f b8bc 623e 16be c67a 8f3c 44ed a6be
00000300: bd11 afbe ecbe 0b3e 47ef 623e 2717 67be
00000310: d1fb 563e a315 b5be 4ca1 8d3d ba20 4d3e
00000320: 461c 1c3e 7516 05bd 8bff b9be 84d1 a1be
00000330: ede9 71be a7b9 583e a051 bd3d dfa8 95be
00000340: 517a bc3e 1542 ce3d 9978 753d 35b2 5ebb
00000350: f6d6 f4bd b819 97bb d303 17bd f1d7 b43e
00000360: f98d cbbd f634 4f3e cbba 4fbe 612b e5bd
00000370: 3ccd d3be 29b3 2ebe c7b7 76be d013 b23e
00000380: 977b 87be 103b 51be 5d02 d2be ccae bcbe
00000390: 112a 6f3e 8d49 86bd d3bf bbbe 4396 8e3e
000003a0: eac9 823e 1ecd 403e f56f 9abe 8069 f13e
000003b0: 3694 82be 5ebf 4dbe 4974 abbd 95a8 0a3e
000003c0: c403 38be d032 0b3e 5774 a23e 2adc 6a3e
000003d0: 0a63 34be bd5a 413e 5cf8 db3e 67d5 33be
000003e0: 8611 d53d d859 64be 021e bebe 0f78 a9be
000003f0: f25b 96be 17ea 5abd b116 80be d6ba 4dbe
