src/control/nn_params/Go1JoystickFlatTerrain/hidden_3_kernel.npy (npy, 12416 bytes, 1 tensors)

array f4 [128, 24]
0	0xbc02bd2b	-0.0079796715
1	0x3d4fcc3b	0.05073188
2	0xbd07f4a5	-0.033192296
3	0xbd34a38c	-0.044101283
4	0xbcea12d3	-0.02857343
5	0x3d2c8c9a	0.042126276
6	0x3cc9e720	0.024646342
7	0xbc9c016f	-0.019043652
8	0x3e0496d9	0.12948169
9	0xbd248f8f	-0.04017597
10	0x3d5555b7	0.052083697
11	0xbe19e443	-0.15028481
12	0xbdb7b10e	-0.089693174
13	0xbd9814be	-0.07425831
14	0x3c3a64e1	0.0113765905
15	0xbdf79d9f	-0.12090611
16	0xbd9a4a1d	-0.07533667
17	0xbd2d65ea	-0.04233352
18	0xbd83da07	-0.0643807
19	0xbcdcb402	-0.026941303
20	0x3d7e9f15	0.06216343
21	0xbdd0356d	-0.1016644
22	0xbb0defd7	-0.0021657848
23	0x3dbb491a	0.091448024
24	0xbbbb3e99	-0.0057142493
25	0x3d79238d	0.06082492
26	0xbe07304a	-0.13202015
27	0xbc83d6b6	-0.016093593
28	0x3c793c08	0.0152120665
29	0x3cef12f9	0.029183852
30	0x3c9d73ad	0.019220198
31	0x3ced5749	0.028972285
32	0xbcf1d8e9	-0.029522376
33	0x3c9203f1	0.017824145
34	0xbba53343	-0.0050415113
35	0xbdbf5e15	-0.093441166
36	0x399b5198	0.00029624696
37	0x3d89e3fa	0.06732936
38	0x3e0a3a72	0.13498858
39	0xbdb35915	-0.087572254
40	0xbd2b5a02	-0.041833885
41	0x3cd58e15	0.026068727
42	0xbbfed7f1	-0.007777207
43	0x3caf6719	0.021411465
44	0xbd7db26c	-0.061937734
45	0xbd07863d	-0.033087004
46	0xbc49c62b	-0.012315313
47	0x3bb18a86	0.0054181246
48	0x3cc3fe6f	0.023925034
49	0xbd7c8277	-0.06164786
50	0x3d3aa606	0.04556849
51	0xbc78a972	-0.015177118
52	0xbc5a8506	-0.013337379
53	0x3b5709e9	0.0032812303
54	0x3d079e49	0.033109937
55	0x3d7e4d94	0.062085703
56	0xbd30a293	-0.043123793
57	0x39677b01	0.00022075699
58	0xbd7e0c0c	-0.062023208
59	0xbd825847	-0.06364494
60	0x3df8c50f	0.12146961
61	0x3dbcd979	0.09221167
62	0x3dc41a68	0.09575349
63	0x3e1970b6	0.14984402
64	0x3e0fc6d5	0.14040692
65	0x3c544d97	0.012957952
66	0x3da91b9f	0.082572214
67	0x3dffe756	0.12495296
68	0x3de51cf1	0.11187161
69	0x3dbca674	0.09211436
70	0x3d774614	0.060369566
71	0xbc880147	-0.016602172
72	0x3d75aec0	0.059981108
73	0x3d085201	0.03328133
74	0xbe3ed923	-0.18637519
75	0xbdb9dfb1	-0.09075869
76	0x3e269cb6	0.16270718
77	0x3da06497	0.07831686
78	0x3e12b65c	0.14327377
79	0x3ddd8c22	0.10817744
80	0x3ddfd9a5	0.10930184
81	0x3ceb2c4e	0.02870765
82	0x3cf5a2f0	0.029984921
83	0xbe14b728	-0.14522994
84	0x3e68ce18	0.22734869
85	0x3d9b8fd2	0.07595791
86	0x3e1645a8	0.14675009
87	0x3eb5ac54	0.35483038
88	0x3e5681f0	0.20948005
89	0x3e8f975d	0.2804517
90	0x3eb2552a	0.348306
91	0x3e11c525	0.14235361
92	0x3e814231	0.25245813
93	0x3ebf3772	0.3734699
94	0x3e996fe3	0.29968175
95	0x3e8a6dae	0.27036804
96	0x3c3a5f03	0.011375192
97	0xbcd95ed9	-0.026534485
98	0x3d84de87	0.06487756
99	0xbcdd1cae	-0.026991215
100	0xbd5b48bb	-0.053536158
101	0xbc9a8584	-0.018862493
102	0xbcc7277b	-0.024310818
103	0x3af9e1a2	0.0019064436
104	0xbd12507c	-0.035721287
105	0xbca803c5	-0.02050961
106	0x3c291f30	0.010322377
107	0xbc034831	-0.008012817
108	0xbdf774ec	-0.12082848
109	0xbd49284b	-0.049110692
110	0x3e0c8fac	0.13726681
111	0xbcbd2393	-0.023088252
112	0xbdb82372	-0.08991136
113	0xbe880784	-0.26568234
114	0xbc8de287	-0.01731993
115	0x3d0e15b9	0.034688685
116	0xbd45fceb	-0.048336904
117	0xbddfd4e9	-0.10929281
118	0xbe2c1f94	-0.16808921
119	0xbda30966	-0.07960777
120	0xbcdc2840	-0.026874661
121	0xbcd46870	-0.025928706
122	0xbe35e986	-0.17764863
123	0x3c514fa5	0.012775336
124	0xbe0cf3a4	-0.13764817
125	0x3e15061f	0.14553116
126	0x3cafd707	0.021464838
127	0x3cb42cf8	0.021994099
128	0x3dc7b6fe	0.097517
129	0x3d29d459	0.041462276
130	0xbc3915f6	-0.01129674
131	0xbdecfabe	-0.11571263
132	0xbd169736	-0.0367653
133	0x3c780647	0.015138215
134	0x3e273079	0.16327085
135	0xbc78ba19	-0.015181088
136	0x3de7ca5c	0.11317894
137	0x3ddd0ae3	0.10793092
138	0xbccbb74c	-0.024867676
139	0xbdb75f6e	-0.08953749
140	0x3cf1bd09	0.029509084
141	0xbc6b0c99	-0.014346265
142	0x3abc97a0	0.001438845
143	0x3d471c46	0.048610948
144	0x3c8e43a3	0.017366236
145	0x3d06b31d	0.03288566
146	0x3de8a227	0.11359053
147	0xbd1d1a7e	-0.038355343
148	0x3d2b152c	0.041768238
149	0x3d44a36b	0.04800741
150	0xbd81b997	-0.063342266
151	0xbd63a004	-0.055572525
152	0x3ca7e66d	0.020495618
153	0x3cd973df	0.02654451
154	0x39c0ba69	0.0003675998
155	0x3db4e769	0.088332005
156	0xbdf8248d	-0.121163465
157	0xbe249489	-0.16072287
158	0xbd82644c	-0.06366786
159	0xbe245a89	-0.16050161
160	0xbe0ca83b	-0.1373605
161	0xbe07bb54	-0.13255054
162	0xbe0f7617	-0.14009891
163	0xbe6b2115	-0.22961839
164	0xbe54f1ce	-0.20795366
165	0xbe4fbddb	-0.20287268
166	0xbe4acffb	-0.19805901
167	0xbdccd4ce	-0.10001527
168	0xbb05141e	-0.002030618
169	0x3d4da49b	0.050205808
170	0x3c08c8c7	0.00834865
171	0x3d2f2da8	0.04276815
172	0xbdc6d19e	-0.0970795
173	0x3db631c1	0.088962086
174	0x3cf8d86b	0.030376634
175	0xbd88952e	-0.06669079
176	0xbb98ba7e	-0.0046609035
177	0xbc75be8b	-0.014999042
178	0x3c200790	0.009767428
179	0x3d1f0258	0.038820595
180	0xbdb1fb34	-0.08690491
181	0xbca8b5ab	-0.020594439
182	0xbd6dab4b	-0.058024686
183	0xbdbeb630	-0.09312093
184	0x3c6cf27d	0.014462111
185	0xbdaef91e	-0.08543609
186	0xbd88e7e9	-0.06684858
187	0x3cfe144b	0.031015536
188	0x3ce626f1	0.02809474
189	0xbdd1fba6	-0.10253076
190	0xbd874c59	-0.06606359
191	0xbcab5ff7	-0.020919783
192	0x3cc6b751	0.024257334
193	0x3cd24285	0.025666485
194	0xbe3d1e2a	-0.18468538
195	0x3d82ab47	0.06380325
196	0x3dbc6842	0.09199573
197	0xbd8b5dd0	-0.06805003
198	0x3d52cf2a	0.0514671
199	0xbcfe7416	-0.031061213
200	0xbc8d9730	-0.017284006
201	0xbdb4f4f7	-0.08835786
202	0x3d27165e	0.040792815
203	0xbc8bda81	-0.017071964
204	0x3e64e890	0.2235434
205	0xbc8e65f0	-0.017382592
206	0x3e01f3a7	0.12690602
207	0x3ee4685f	0.4461088
208	0x3e9c3c48	0.3051474
209	0x3e440082	0.19140819
210	0x3eb31b18	0.34981608
211	0x3e7a5f65	0.24450453
212	0x3e8c47fb	0.27398667
213	0x3e9205ff	0.285202
214	0x3e7c20c1	0.2462187
215	0x3d118708	0.035529166
216	0x3c904314	0.01761011
217	0x3cbb7706	0.022883903
218	0xbc24feb0	-0.010070488
219	0x3d369a15	0.044580538
220	0x3d1df1bf	0.038560625
221	0x3dd30b38	0.10304874
222	0xbcc9271d	-0.024554783
223	0xbc15b4f0	-0.009137377
224	0x3cbcc85c	0.023044758
225	0xbd481cba	-0.04885552
226	0xbc901e7a	-0.017592657
227	0x3d0d3e97	0.03448352
228	0x3d9ed0a7	0.07754641
229	0x3dd4b1e5	0.10385493
230	0x3d52efb4	0.05149813
231	0x3e048cfe	0.12944409
232	0x3ce68ce8	0.028143361
233	0x3d942595	0.07233731
234	0x3da2e19d	0.079531886
235	0xbc8c7159	-0.017143892
236	0x3b7f0e02	0.0038918261
237	0x3dbaf8e5	0.09129504
238	0x3d0842bf	0.03326678
239	0xbd258480	-0.040409565
240	0xbcda76a2	-0.026667897
241	0xbc6c9ef6	-0.014442196
242	0x3c10b476	0.008832088
243	0x3b71d89a	0.0036902786
244	0x3c650896	0.013979098
245	0xbd35838c	-0.044314906
246	0xbb450d58	-0.0030067768
247	0xbdda3654	-0.106548935
248	0x3ddafa08	0.10692221
249	0xbbf7eff6	-0.0075664474
250	0x3d295fa0	0.04135096
251	0xbddbff1d	-0.10742018
252	0x3e2ae493	0.16688757
253	0x3cf7d54c	0.030253075
254	0x3e04e41f	0.12977646
255	0x3e1c398d	0.15256329
