src/control/nn_params/Go1JoystickFlatTerrain/hidden_2_kernel.npy (npy, 131200 bytes, 1 tensors)

array f4 [256, 128]
000000 5b af 21 3c 53 94 8a bd 1d 6a 45 bd d2 b2 24 bc
       0.009868468 -0.06766572 -0.0481969 -0.0100524
000010 1a 6f e9 bd bc 28 d2 3d a7 f7 a3 3c 2b b5 90 3d
       -0.11398144 0.10261676 0.02001555 0.07065805
000020 49 e3 ad bd b1 cb 10 bc 13 60 13 3d 41 d1 f1 bd
       -0.08490617 -0.008837626 0.035980295 -0.1180749
000030 3c e4 05 3e 23 29 58 bd fb 55 28 3d b3 80 05 3e
       0.13075346 -0.052773606 0.041097622 0.13037376
000040 b4 d9 6e 3d a5 6d 8c 3d d3 06 d1 bb 01 c0 3e bd
       0.058313087 0.068568505 -0.0063789873 -0.046569828
000050 7e dc b5 3d bd 8a 1f be 4e 58 15 3d 3f c1 10 be
       0.08879946 -0.15580268 0.036461167 -0.14136218
000060 04 e0 88 bc 95 99 a3 3d 2c 0f dd b8 30 38 81 bd
       -0.016708381 0.07988278 -0.00010540927 -0.06309545
000070 6c 41 6e 3d 4b f6 eb bc 18 b4 f4 bd df d2 8f 3d
       0.05816786 -0.028803965 -0.11948413 0.07022642
000080 91 6c 8f be d6 a2 98 3d eb 9a e8 3c c9 82 b3 3d
       -0.28012517 0.074529335 0.028394183 0.0876518
000090 3c 1a 4d bd 5e 22 67 3e 1d 8e 25 3e 43 68 e6 3d
       -0.050073847 0.22571704 0.16167493 0.11250355
0000a0 44 5e 70 bd 22 39 9d bd 0f 34 2e 3e b5 1f 3f bd
       -0.05868365 -0.07676913 0.17012046 -0.046661098
0000b0 e2 d9 bf 3c 23 36 84 bd 2c 20 fa 3d 57 13 ca bc
       0.023419324 -0.06455638 0.122131675 -0.024667425
0000c0 1e 7e f2 bc 14 b8 86 3d f8 f0 ea bd be 47 29 3d
       -0.029601153 0.06578079 -0.114717424 0.041328184
0000d0 99 4b be 3c 28 da 77 3d 31 8c 04 bd 18 a1 c7 bd
       0.023229407 0.060510784 -0.03236026 -0.09747523
0000e0 d6 91 3f bd 42 a0 1e 3d af 2f 7b bd 97 7e 14 bd
       -0.04676994 0.038727053 -0.06132477 -0.036253538
0000f0 d1 b4 b2 bd 8b 0a 38 bd a4 a6 8d bd 3c f8 4f bc
       -0.08725894 -0.04493193 -0.0691655 -0.012693461
000100 65 da 3b 3c e0 e5 67 3d ed 48 f0 bc 28 fe a4 bd
       0.0114656435 0.05661571 -0.029331649 -0.08056289
000110 0c 77 6f bc 64 97 db bc d5 25 b4 bc 7b ad 2b bb
       -0.014615785 -0.026805587 -0.021990696 -0.0026195932
000120 a7 32 08 3e f7 27 ce 3d 96 b8 01 be dc 31 f2 3b
       0.13300572 0.100662164 -0.1266807 0.0073911976
000130 34 a9 1b 3d 5e 05 2e 3d e9 bb 04 be 06 64 a7 bc
       0.03800316 0.042485587 -0.12962307 -0.020433437
000140 57 ea 07 be fc de 37 bd d1 b6 ba 3d 31 be 72 be
       -0.13272987 -0.04489039 0.09116901 -0.23705365
000150 3d b1 6d bd 4f 87 e6 bd b5 88 ec 3d fa aa c8 bc
       -0.058030356 -0.11256277 0.11549512 -0.02449559
000160 cd 43 3e bd 28 02 33 bb 7f 10 96 bd d1 10 2c bd
       -0.04645138 -0.0027314518 -0.07327365 -0.042008225
000170 42 14 89 bd 07 95 8a bc 8b f8 a5 3d 6b c1 86 3b
       -0.06693317 -0.016916765 0.081040464 0.0041124127
000180 9d 14 d3 bb 6a 25 c9 3c 27 4f e1 3d 77 3c 00 bc
       -0.0064416663 0.024553973 0.11001425 -0.007826916
000190 6d be 82 bc 59 a2 a5 3d 17 29 cf 3c ce 1b bb bd
       -0.015959943 0.08087606 0.025288148 -0.09136163
0001a0 63 48 48 3e ca 46 cd bd 6b bb ae 3d 75 8b b5 bd
       0.19558863 -0.100232676 0.08531841 -0.0886449
0001b0 3a 13 17 3d cb 32 8e bd 9c d9 84 3b 34 1d 23 bc
       0.03688357 -0.06943282 0.0040542614 -0.009955693
0001c0 c0 bd b1 3d 0b 61 55 3d b1 c8 7f bd 95 de 82 3d
       0.0867877 0.0520945 -0.062447254 0.063901104
0001d0 8e 2d 38 3d 48 b1 02 3e d4 d1 4f bd d8 75 00 be
       0.04496532 0.1276294 -0.050737217 -0.12544954
0001e0 f2 e1 a5 3d 25 04 e0 bd 55 4c f9 3d ff 17 ef bc
       0.08099736 -0.109382905 0.12172762 -0.029186247
0001f0 27 03 09 be 11 53 fd 3c 37 07 83 3d c4 9f 22 bc
       -0.13380109 0.030923398 0.063978605 -0.009925786
000200 e6 99 8b ba c7 72 6c bd 89 61 19 be d6 a9 c9 3a
       -0.0010650724 -0.057726648 -0.14978613 0.0015385698
000210 9f 49 82 3c f0 a7 ec bc 97 19 54 3b fe 11 6e 3d
       0.015904246 -0.028888673 0.0032363886 0.058122627
000220 34 84 bd bc 0f 99 0c be 73 a9 9d bd 05 45 04 be
       -0.023134328 -0.13730262 -0.076983355 -0.12916954
000230 70 06 13 be 57 f2 f3 bd 72 c0 af 3c da 0d 31 3d
       -0.14357924 -0.11911457 0.02145407 0.0432261
000240 5b 1c d2 3c 4e 87 4f bd ab a7 1f 3b 00 a2 8c 3d
       0.025648287 -0.050666146 0.0024361413 0.068668365
000250 02 de 57 bd 58 de 6c bd c1 29 c6 bd e5 7d dc 3d
       -0.052701958 -0.05782923 -0.09675933 0.107662
000260 df a0 b4 3d c8 fe 60 be d6 bf cb bc 2a df 58 3d
       0.08819746 -0.21972191 -0.024871748 0.0529472
000270 90 e1 d5 3d 96 37 1b bd ce b1 2a bc 6e 86 8d bd
       0.10443413 -0.037894808 -0.0104183685 -0.06910406
000280 5b e0 74 bd 06 92 dc 3d c4 ae c1 3c 74 07 15 be
       -0.059784275 0.10770039 0.023642905 -0.14553624
000290 6c 60 99 3d 4d 5b 0e 3d f4 0f f3 3d 63 1c c2 bd
       0.07489094 0.03475504 0.11868277 -0.094780706
0002a0 70 80 30 bd ef d8 0a 3e 1e d8 54 39 93 f5 a0 bc
       -0.043091238 0.13559316 0.00020298405 -0.019648349
0002b0 54 78 e1 bd 81 77 c7 3c 78 64 6c bd 89 4f d6 bd
       -0.11009279 0.024348976 -0.057713002 -0.10464389
0002c0 13 11 01 3e df dd 00 bd 44 2a dc 3d b3 fa f2 3d
       0.1260417 -0.031461593 0.10750249 0.11864223
0002d0 af be 99 be 08 4b b9 3d 97 a4 36 39 e7 b6 01 3e
       -0.30028293 0.09047514 0.00017418187 0.12667428
0002e0 5f 16 d8 3d d6 21 91 3d fe ce ed bd 94 aa 9b be
       0.10551142 0.07086532 -0.11611746 -0.30403578
0002f0 f6 45 9a bd 0c 8b 5d 39 b0 72 6a be aa 85 87 be
       -0.07532875 0.00021128001 -0.22895312 -0.26469165
000300 5f 79 2d be 69 c7 40 be 22 0b 02 be 8c 65 2f bd
       -0.1694083 -0.18826069 -0.1269956 -0.042821452
000310 77 12 fd bc 2e 87 1d 3c ba 46 10 be 07 16 1f 3e
       -0.030892594 0.009614749 -0.1408948 0.15535747
000320 10 08 1b be 95 13 f9 bc e4 df 0b be b9 ca 46 3e
       -0.15139794 -0.030404845 -0.13659626 0.1941327
000330 77 b0 fb 3d 54 d0 9a bc 30 9b 17 3e d8 94 17 3e
       0.122895174 -0.018898167 0.14805293 0.14802873
000340 53 3e f3 bc 14 6f 79 3d 00 47 0e 3d 6c fe e0 3d
       -0.029692804 0.060896948 0.03473568 0.10986027
000350 6a 96 10 bd 45 88 47 3c 72 ac a4 3d 15 d8 b6 3d
       -0.035299696 0.012178485 0.08040704 0.08927933
000360 d7 d1 4f 3d 46 e5 28 be be 1e 3a be 80 00 bb bd
       0.05073723 -0.16493711 -0.1817579 -0.09130955
000370 d5 0f a2 3d c7 06 10 3e 13 6d 37 bc ab 27 b1 bd
       0.07913176 0.14065085 -0.011195439 -0.08650144
000380 b0 85 86 bd 51 36 b9 bd 93 53 05 bd 7c 85 d8 3d
       -0.065684676 -0.09043563 -0.032550406 0.10572335
000390 19 c4 c1 3c 80 08 3a bd a0 9a 71 bc 3b de a3 3c
       0.023653077 -0.045418262 -0.014746338 0.020003429
0003a0 fa 65 57 be 0a e1 14 bd b3 d9 82 bd 34 ea 62 bd
       -0.21034995 -0.036347426 -0.06389179 -0.055399135
0003b0 75 03 f2 bd 55 85 99 3d 49 bb 88 3d 69 a9 40 be
       -0.118170656 0.07496134 0.06676347 -0.18814625
0003c0 b4 f3 a6 3d 4b 76 eb 3d 2f 59 5d bc 87 37 a4 3d
       0.081519514 0.11497172 -0.013510033 0.080184035
0003d0 ab 4b 3f bd c0 b6 59 3b 4c 71 f2 bd da 28 89 3d
       -0.046703022 0.00332205 -0.11838016 0.06697245
0003e0 16 b2 73 bc c6 44 6c bd 7b 31 5b be 7c 0d 8e 3d
       -0.014874002 -0.057682775 -0.21405594 0.06936166
0003f0 90 85 c5 3d d0 91 4f 3c be 3e 52 be 33 7d da 3c
       0.09644616 0.012669042 -0.20531747 0.026671028
